multi_output_lstm.pth (torch, 222468 bytes, 10 tensors)

lstm.weight_ih_l0 f4 [256, 14]
000000 b5 60 17 3d 15 a6 32 bd fb 8c b2 3d d0 7f 8f bd
       0.03695746 -0.04361542 0.08718296 -0.070068
000010 c8 96 30 3e 53 5d e8 3d 1d d6 f2 3d 6c d4 c0 bd
       0.17245018 0.11345925 0.11857245 -0.09415516
000020 54 47 98 3d 5e 65 98 3d 26 6e 49 3d 96 da c7 3d
       0.0743548 0.07441209 0.04917731 0.09758489
000030 df 24 22 bd 87 34 1a 3e 72 df 11 3e ef 4d 1a 3e
       -0.039585944 0.150591 0.14245394 0.15068792
000040 64 fc 0d bc 1d 99 54 3e f8 f9 07 3e 02 31 e5 3d
       -0.008666132 0.20761533 0.1327895 0.11190988
000050 b8 6b 40 3d ea 00 14 3e da 3b 82 3e 23 3a 63 ba
       0.04697773 0.14453474 0.25436288 -0.0008668026
000060 40 5e a3 3c 25 e0 b4 bc f7 b5 b3 bc 00 8d 8c 3d
       0.019942403 -0.022079537 -0.021937354 0.06862831
000070 9c ef 21 3e e0 66 21 3d cf cc 87 bc 4f fb 0c bd
       0.1581406 0.03940475 -0.016577153 -0.034419354
000080 c2 f3 11 3c 61 95 df bc 97 0d 0e 3e 2b 62 0e bd
       0.008908214 -0.02729291 0.13872372 -0.03476159
000090 66 02 84 bd 3a 8a 8c bb 46 b4 3b bd 75 a9 6e bc
       -0.0644577 -0.004288939 -0.04582622 -0.014566769
0000a0 ab 73 5c 3b 6c e4 80 3d fd 20 cd 3d 46 a8 c1 3d
       0.003363828 0.06293568 0.10016058 0.09455924
0000b0 cc 06 14 3e 3b 23 a1 3d a4 76 d2 3d 6f 44 43 3d
       0.14455718 0.07868048 0.10276535 0.047672685
0000c0 f8 5c 5d 3e f7 22 18 bc 77 54 01 3f 21 4a ab bd
       0.21617496 -0.00928568 0.5051951 -0.08363748
0000d0 a6 30 7a 3d 90 9d bd 3d bb 9d 1d bd 8a a2 03 3e
       0.06108155 0.09258568 -0.0384805 0.12854972
0000e0 5b fd 2a 3e d6 1a 51 bd 63 dc f9 3d fa cc 21 3e
       0.1669821 -0.051050983 0.122002386 0.15800849
0000f0 84 43 c4 3d e3 b5 ab bd b4 c3 a4 3d 10 30 22 3e
       0.0958319 -0.083843015 0.0804514 0.15838647
000100 c1 f5 8b 3c 3f ee 01 3c cb 2f 8f 3d be f5 92 3d
       0.017084958 0.007930337 0.06991538 0.07175778
000110 14 e9 28 3d 23 a6 38 3e 6d d1 25 3d f7 67 49 3d
       0.041237906 0.18032126 0.040482927 0.049171414
000120 61 77 20 3c 41 b9 13 3e 8b 42 d4 3d 21 16 ac 3d
       0.009794087 0.14426138 0.103642546 0.08402658
000130 d7 5f 59 3d 70 13 c7 bc d8 07 2b 3d 95 91 11 bd
       0.053069916 -0.02430126 0.041755527 -0.03553923
000140 95 cc 2a 3e fb ea 31 3d af 70 b6 bd cc 0d 06 3e
       0.16679604 0.043436985 -0.089082114 0.130912
000150 e3 c2 2c 3e d6 29 84 3d b4 21 d8 3d 92 ab 6e 3d
       0.16871218 0.06453292 0.10553303 0.05826909
000160 ee c9 2a 3c 0b a0 87 3d c9 fb 4e 3e e8 09 41 3d
       0.01042412 0.06622323 0.20213236 0.047128588
000170 1a 42 9d 3d 5f 5a 8a 3d d6 86 90 3d 56 06 c9 3d
       0.076786235 0.06755518 0.07056968 0.098156616
000180 6d 28 6a 3d 76 31 f1 3c 5c 46 9c bd 8c 3f a3 3d
       0.05716746 0.02944253 -0.076306075 0.07971105
000190 6a 01 a7 3c e3 c6 d7 bc 36 47 94 3c 33 90 98 bd
       0.020386416 -0.026339954 0.018100362 -0.07449379
0001a0 fe 84 f5 3d cd 96 80 bc 04 08 0e bd 7a 14 b8 bd
       0.11988257 -0.015696907 -0.034675613 -0.089882806
0001b0 f6 ce 02 3e aa 81 a4 3c 80 16 91 bd 9c c9 aa 3d
       0.12774262 0.02008136 -0.0708437 0.08339235
0001c0 f5 39 43 3d 42 bb 6d 3c 13 cb 14 3c 3a 87 94 3c
       0.047662694 0.014509978 0.00908162 0.018130887
0001d0 ce bf a4 bd 9f 1f d9 bd 0a 6f 46 3d db 6a 02 3d
       -0.08044396 -0.10601734 0.04844574 0.031840187
0001e0 de 48 81 bd 45 af 1f 3d 89 c9 ba 3d 72 4c 23 3e
       -0.063127264 0.03898551 0.09120471 0.1594713
0001f0 32 30 10 3e c7 5a 26 3e ca 9b b7 3c 29 32 12 3e
       0.14080885 0.16245566 0.022413153 0.14276947
000200 2e cb 99 3d cb ef 14 bd 35 4e 75 3a e3 f3 f6 bc
       0.075094566 -0.036361497 0.0009357662 -0.030145591
000210 fc cd c9 bd 7e df 67 bc ec 4f f3 3c 0c 5f fc 3d
       -0.098537415 -0.014152406 0.029701196 0.12322816
000220 33 31 48 bd e8 db a5 bd 6a 8e b2 bd a8 53 ef 3d
       -0.048875045 -0.080985844 -0.087185696 0.11685878
000230 18 89 4f 3e 86 ab d7 3d b7 21 df 3d fb 5e a1 3d
       0.20267141 0.105307624 0.108951025 0.07879444
000240 01 c5 69 3e 03 72 5d bd 30 08 47 3d 7c eb c8 3d
       0.22829057 -0.05406381 0.048591793 0.0981054
000250 c9 59 83 bc 38 a1 03 bd 3e 05 fb bc 8e 44 12 3e
       -0.016034024 -0.032136172 -0.030642148 0.14283964
000260 36 1f e8 3c e3 c7 9f bb 81 db 4f 3c 6b 8f 9c 3d
       0.028335195 -0.0048761233 0.012686611 0.07644542
000270 6b d7 ec 3c c7 3e 7c 3c 45 dd 1f 3e 46 67 c5 3d
       0.028911313 0.015395827 0.15611751 0.096388385
000280 18 9c d5 bb 6e 1a a8 bd da 1b 8f 3e c7 3d 12 3e
       -0.006518852 -0.08208166 0.27950937 0.14281379
000290 89 ac 9f bd 17 bb 6f 3d 94 98 c3 3d b5 21 39 3e
       -0.0779658 0.058528032 0.09550586 0.18079264
0002a0 5a af 61 bb 0f 9c 03 bd da 49 ae 3d a6 e3 4c bd
       -0.0034436793 -0.03213125 0.0851018 -0.05002179
0002b0 48 23 51 3d 0c f5 eb bc de f6 ed 3d 7d 40 d4 b9
       0.051059037 -0.02880337 0.11619352 -0.00040483839
0002c0 5c 5a de 3d 3f b0 93 3d 36 b8 81 3d 46 6e 7d bd
       0.108570784 0.07211351 0.063339636 -0.061872743
0002d0 d3 9b 8c 3d b3 e2 28 bd ec 29 74 3c fe 2c 48 3d
       0.068656586 -0.041231822 0.014902573 0.048871033
0002e0 2d 7a a1 3d 4c 3e 21 3e 26 1c 1c 3d c0 96 4a 3d
       0.07884631 0.1574642 0.038112782 0.049460173
0002f0 46 f0 11 3d 34 20 15 3e a0 ac e3 3d d7 a4 8b bd
       0.035629533 0.14563066 0.1111691 -0.0681855
000300 a2 46 d1 bc 7b 58 b1 bd 91 71 a3 bd e2 de ef bb
       -0.025546376 -0.086594544 -0.079806454 -0.007320271
000310 34 f5 c8 3c 34 7f 24 3e d4 89 ea bd 62 d9 80 bd
       0.024530984 0.16064149 -0.1145207 -0.062914625
000320 7f b8 80 bd ed a7 a0 bd 45 77 c5 3c 1b 19 80 bb
       -0.0628519 -0.07844529 0.024104724 -0.003909243
000330 03 55 34 be 82 89 4e bd 16 70 7d bd 45 b1 f4 3d
       -0.17610554 -0.050424106 -0.06187447 0.11947874
000340 ef f5 65 3d ab 01 23 3d a8 29 9b bd eb 77 08 3e
       0.056142744 0.039796513 -0.07576305 0.13326995
000350 ae c3 3e 3d 15 31 b9 bc 5d 14 5b 3d 6e 18 30 3d
       0.046573333 -0.022606412 0.053486217 0.042992048
000360 8b b7 26 3d ca 46 8f 3c 61 5c 05 be 58 d4 82 3c
       0.040702384 0.01748981 -0.13023521 0.015970394
000370 03 77 06 bd 81 92 73 bb ce 4f 24 3e 8c b1 6b 3d
       -0.032828342 -0.003716618 0.16046068 0.05754237
000380 b4 b5 bd 3d 41 d5 98 3d 28 4e 52 bd 7f 17 51 3d
       0.09263173 0.0746255 -0.051344067 0.0510478
000390 47 db 4e 3e 43 41 82 3d c1 ed b4 3d 47 17 9d 3c
       0.20200835 0.06360104 0.088344105 0.019176139
0003a0 85 96 dc bd 71 c5 a8 3b 17 09 17 bd 6b db b6 3d
       -0.10770897 0.00515049 -0.036873903 0.089285694
0003b0 6b 5f 2d 3e e9 92 8f bc 09 82 df bc fd 4a 54 3d
       0.1693093 -0.017526107 -0.027283685 0.051829327
0003c0 e8 6a dc bd c2 2d 94 bc 03 2f 0d 3c 04 83 25 3e
       -0.10762578 -0.018088225 0.0086171655 0.1616326
0003d0 4e 83 0a 3d 44 8a 38 3b e1 fb bd bd e3 d3 83 3d
       0.03381663 0.0028158585 -0.09276558 0.064368986
0003e0 42 0f e2 bd eb 80 0b 3d 8f f9 ae bd 92 c1 55 bd
       -0.110380664 0.034058493 -0.08543693 -0.052186556
0003f0 28 42 80 bd 96 27 c1 bc 42 91 96 bc 2a a4 4c bd
       -0.06262618 -0.023578446 -0.018379811 -0.049961247

lstm.weight_hh_l0 f4 [256, 64]
000000 d5 12 15 3d b6 51 9e 3b c1 5e da 3d 05 0a 08 3d
       0.036394913 0.004831518 0.10662604 0.03321268
000010 f1 75 13 3c f8 b1 8c 3d 11 5c df bd 36 1b 02 3e
       0.009000287 0.06869882 -0.10906232 0.12705693
000020 20 e9 c7 3d 2a d1 61 bd bc 39 dd 3d 6b 0e 99 3d
       0.09761262 -0.055131115 0.108020276 0.07473453
000030 fe 19 cf 3d 8b 32 60 3d fd 7e a6 bc 5c c0 cb bc
       0.101123795 0.0547357 -0.020324225 -0.024871998
000040 a9 16 95 3d 3b e4 df bd 1d 15 36 3b b6 19 a5 bd
       0.07279713 -0.109322034 0.002778358 -0.080615446
000050 83 32 8d 3d fc d5 42 bd 94 e4 e7 bd 6d db f9 bd
       0.068944 -0.047567353 -0.11322895 -0.12200055
000060 6d 78 17 3a e3 bf 00 bc 12 d0 38 3d 83 37 cb 3d
       0.0005778138 -0.007858249 0.045120306 0.099226974
000070 9f 7b 46 3d 42 cb df 3d c6 26 0e 3d 61 fe 54 bc
       0.048457738 0.1092744 0.034704946 -0.013000102
000080 23 a1 0b be fc 62 75 bd 19 2a af bd af ff 7d 3d
       -0.13635688 -0.059908852 -0.08552951 0.062011417
000090 c0 7f 7a bb d8 49 b8 3c f2 6c 0a 3d 1b bc 0e 3e
       -0.0038223118 0.022496149 0.033795305 0.13938944
0000a0 7f d4 e8 3c 6a 8a ab 3d 20 2a 37 bd 36 09 e5 bd
       0.028421639 0.0837601 -0.044717908 -0.111833975
0000b0 bf a3 93 bd 09 e5 07 be 39 25 06 3d 88 66 d3 3d
       -0.072089665 -0.13270964 0.032750342 0.10322291
0000c0 c9 93 b3 bd 3a 57 0c bc a6 23 27 3d 08 c6 68 3a
       -0.08768422 -0.008565718 0.04080548 0.00088796066
0000d0 2c 92 24 bc 9d a9 36 bb 1e 83 0f 3e 9f 1d 07 3e
       -0.010044616 -0.0027872093 0.14014861 0.13194893
0000e0 0b 9a a0 3d 8e e3 88 bc 9f 55 ce 3d a9 8b 80 3d
       0.07841881 -0.016710069 0.10074925 0.06276638
0000f0 23 ea 12 3d 51 81 9f 3d e0 d3 eb 3d e3 4f 04 3e
       0.03586782 0.07788337 0.11515021 0.129211
000100 d2 9e 26 be a6 4a 20 3b 00 8f 85 39 f9 e9 6b be
       -0.16271523 0.0024458556 0.0002547428 -0.23038472
000110 8e 0e 00 3c 6d 86 24 be c2 b0 1e bd 09 fd 57 bc
       0.00781597 -0.16066904 -0.038742788 -0.013182887
000120 02 9a 19 3e c6 c6 f4 3d 44 4d a8 3d 5f a4 62 3d
       0.15000156 0.119519755 0.08217862 0.055332538
000130 bb 5a f5 3d a8 b0 d5 bc c4 b9 07 be 63 b8 a9 bd
       0.11980196 -0.026085213 -0.13254458 -0.08287122
000140 47 c0 0e be d0 c0 04 be c7 58 d2 3d 3f b4 2f be
       -0.13940535 -0.12964177 0.10270839 -0.17158602
000150 18 d1 56 bc ff c5 82 bc 8c 4c af 3d 84 1c d1 bd
       -0.013111375 -0.015963553 0.08559522 -0.10210517
000160 a4 a9 fa bd 9d 1d 2f be 7a 76 7d bc ea 9b 47 be
       -0.12239388 -0.1710114 -0.015470142 -0.1949307
000170 fe 86 b9 bd 1d 85 23 3e 06 c9 4e 3c e3 af 38 3d
       -0.09058951 0.15968747 0.01262117 0.045089614
000180 3a 38 80 bb ad 26 3d be 70 a7 e0 bc b1 b7 39 3d
       -0.0039129527 -0.18471785 -0.02742359 0.045341197
000190 a1 81 2c be a6 57 44 3d 00 d0 64 3d cf 79 8d 3c
       -0.16846325 0.04793515 0.055862427 0.017269997
0001a0 fb ba 10 3e 99 5d 38 be db 08 ed 3d 1b 05 dc bd
       0.14133827 -0.18004455 0.11573955 -0.10743161
0001b0 d4 12 19 3e 60 cc e4 bd a9 2e c0 3d 43 d1 26 3e
       0.14948589 -0.11171794 0.093839 0.16290765
0001c0 f1 34 b9 bc db 87 52 bd 40 e5 64 3b 88 3b 13 bd
       -0.022608252 -0.051399093 0.0034926683 -0.035945445
0001d0 65 31 cd bd ba ec 28 3e 18 9c f4 3d b1 27 95 3d
       -0.10019187 0.16496554 0.11943835 0.07282961
0001e0 cf aa 9b 3d 21 ad df 3c a4 09 52 3e 3a 70 c3 3d
       0.076009385 0.027304234 0.2051149 0.0954289
0001f0 4a ec 41 3d 6a 89 9f 3d cb 85 a5 3d aa 7d 21 bc
       0.047344483 0.077898815 0.080821596 -0.009856621
000200 10 07 f2 bd 5e 90 52 bd 5b dd 98 bd 31 41 0b 3d
       -0.11817753 -0.05140721 -0.07464095 0.03399772
000210 58 1d f8 ba cb c0 97 bd fa 7f 10 3e e2 b0 e6 3c
       -0.0018929644 -0.07409819 0.14111319 0.028160516
000220 62 34 17 be 24 2a cd 3d d6 3b 18 bd f0 eb ad bd
       -0.14766076 0.10017803 -0.03716644 -0.08492267
000230 1b c5 e1 3d 20 3c b8 3d be 53 06 bd e0 c3 01 bd
       0.11023923 0.08995843 -0.032794707 -0.03168094
000240 fd e1 77 3d 9a c4 c2 39 09 f4 88 bc 1a 59 f0 bd
       0.060518254 0.00037149043 -0.016717928 -0.11735745
000250 39 e1 2f bd 28 93 60 bc 9e 70 1f bc 6c ef 04 be
       -0.0429394 -0.01370696 -0.00973144 -0.12981957
000260 21 1a 9f bc a1 80 14 3d 07 ad ef bd 72 7a 53 bd
       -0.019421639 0.036255483 -0.11702924 -0.051630445
000270 7e 0f 5f bb 93 65 c0 bd 25 e5 11 bd f9 63 8d bd
       -0.0034036334 -0.09394374 -0.03561892 -0.06903834
000280 ff 4c 84 bd 75 2d d0 3d a5 20 00 be b2 2e 02 3e
       -0.06459998 0.1016492 -0.12512453 0.12713125
000290 a5 42 38 bd 65 53 4d 3c 23 57 11 3d 90 b5 d1 bd
       -0.044985432 0.01253209 0.03548349 -0.102397084
0002a0 bd 52 c9 bd ef 2a 05 be 10 e4 1a 3e f8 4a 97 3c
       -0.09830234 -0.13004659 0.15126061 0.018468365
0002b0 53 79 d0 bd 92 3e b7 3d 67 5a 7a 3d 95 3f a5 3d
       -0.10179391 0.08947481 0.06112137 0.08068768
0002c0 9c ec c3 3d 45 61 62 bd c3 9d ce 3d ef 8d 46 bd
       0.09566614 -0.055268545 0.100886844 -0.048475202
0002d0 a2 0d ab bd 4f 98 47 3d d7 8b 0b bd ed 9b 93 bb
       -0.0835221 0.048729237 -0.03406891 -0.004504672
0002e0 17 b2 08 ba d8 b1 ab 3d dd eb 9e 3d c4 ea 7c bd
       -0.0005214526 0.083835304 0.07759831 -0.061747327
0002f0 38 17 e9 bd 34 d9 4b bd 21 41 e1 3c 1f 32 38 3d
       -0.11381382 -0.049767688 0.027496876 0.044969674
000300 f4 d8 4d be 8c ac 46 bd 2e 0a 9c 3d 21 7a 1f be
       -0.20102292 -0.048504397 0.07619129 -0.15573932
000310 4b 4c 2f bd 09 4d 5e bb fd 13 0e 3e 36 13 92 bd
       -0.042797368 -0.0033920428 0.13874812 -0.071325704
000320 54 28 ec 3d 86 9b 79 bd 51 59 59 3d e6 5c 22 3e
       0.115311295 -0.060939334 0.053063694 0.1585575
000330 c8 74 0d 3e bb 4d 23 be 8a d4 88 bd 9c 19 5a be
       0.1381408 -0.1594762 -0.066811636 -0.21298832
000340 43 41 e7 bc 40 66 d8 bc 98 23 80 bd 4f b7 1f 3d
       -0.028229361 -0.026415944 -0.06256789 0.038993176
000350 16 a5 af bd e8 ac b2 3d 8f ca ef 3c 96 8e bc bc
       -0.085764095 0.087243855 0.029271392 -0.023017209
000360 7a 9c 5f 3c d5 e1 9e bc 6f d2 16 be dc 50 10 bc
       0.013648147 -0.019394794 -0.14728712 -0.008808341
000370 3c ac f8 3d a7 be b6 bd b6 7b e6 3c 71 5d b7 3d
       0.12142226 -0.08923083 0.028135162 0.089533694
000380 17 06 7b 3c 93 eb 1e be 54 a6 cc bd fe ff 1d 3e
       0.015321276 -0.15519552 -0.09992662 0.15429685
000390 3f 7b 2e be 30 2e 17 be 57 7e f2 bd 7e e9 3f bd
       -0.17039202 -0.14763713 -0.11840504 -0.046853535
0003a0 4a ea 53 3c 8e a3 fb 3c 8e e7 b7 bc c4 74 81 bd
       0.012934277 0.030717637 -0.022449281 -0.063210994
0003b0 7a 0a fc 3d 50 55 ca bd 00 7a a7 bd d0 13 16 3d
       0.12306686 -0.09879553 -0.081775665 0.03663999
0003c0 4f 11 78 3c 6a 14 21 be fd 23 3f 3e f0 47 00 3e
       0.015140845 -0.15730444 0.18666072 0.12527442
0003d0 5e 16 8f 3d f1 09 43 3e 10 b2 d2 3d ea ab f6 bd
       0.06986688 0.19046761 0.10287869 -0.12044509
0003e0 ce b6 ae 3d 11 ea 1a bd 82 87 af 3d 7f d8 d8 3d
       0.08530961 -0.03782088 0.08570768 0.10588168
0003f0 38 f5 f2 bc 90 b9 02 3e 84 dc 09 bd 00 1c b2 ba
       -0.029657945 0.12766099 -0.033657566 -0.0013588667

lstm.bias_ih_l0 f4 [256]
000000 1e 0e 37 3d 88 1d 4b 3e 18 d9 69 3d 78 9e aa bc
       0.044691198 0.19835484 0.057091802 -0.020827517
000010 2b 70 e9 3d 86 08 9b bc 83 4f 45 bd 7e 8e c4 bd
       0.113983475 -0.018924963 -0.04817153 -0.09597491
000020 fe 23 0b 3e b5 f2 91 3a 18 cb 29 3e e0 d0 06 3e
       0.13587949 0.0011134954 0.1658138 0.13165617
000030 cb 0a 66 3c d6 f8 02 3e cc 13 12 3d e2 09 8f 3d
       0.014040659 0.12790236 0.03566341 0.06984307
000040 a2 e0 b8 3c 93 6c ec bc 77 21 af 3d 3e 84 97 3d
       0.02256805 -0.028860366 0.08551305 0.0739827
000050 3e aa 54 3d 78 27 71 3d 0f 7a 4c bd d3 38 40 3d
       0.051920168 0.05887553 -0.04992109 0.04692919
000060 f5 d1 12 3e 56 ee ea 3d 8c 27 22 bc 53 94 b0 3c
       0.14337905 0.1147124 -0.009897124 0.021555101
000070 2f 86 94 3d a1 ff 06 3e 40 32 fe 3d 40 8f ec 3c
       0.07252156 0.13183452 0.12411928 0.0288769
000080 a3 ee 26 3b 6c fe 62 3d 68 69 81 bd fa 68 78 3d
       0.0025471828 0.055418417 -0.06318933 0.06064699
000090 ee ce c9 3d 62 7c 50 3e 0e 1c a3 bd 74 2d 6a 3d
       0.09853922 0.20359948 -0.079643354 0.057172254
0000a0 97 e2 3e 3e 09 90 30 3c 57 d4 4b 3a ff 76 95 3d
       0.18641125 0.010776528 0.00077754766 0.07298087
0000b0 97 00 a3 bd 0c 7d b4 3d 74 11 04 3e 06 f1 a3 3d
       -0.07959097 0.08812913 0.12897283 0.08004956
0000c0 23 87 b6 bd 41 c7 e0 3d b0 b5 cb 3d 71 0b aa 3d
       -0.08912494 0.10975505 0.099467635 0.083029635
0000d0 8e 5c 4d bd 2e b9 d3 bd e5 b6 22 bd 62 93 09 3d
       -0.050137095 -0.103380546 -0.039725203 0.03358782
0000e0 37 3d c3 3d cb 2d 12 bd 98 97 ad 3c 6d 1c aa bd
       0.0953316 -0.035688203 0.02119045 -0.08306203
0000f0 23 a5 e1 3d 9b fc 15 bc 93 24 94 3d ae ba 03 bc
       0.110178255 -0.009154464 0.072335385 -0.008040113
000100 e6 45 c1 bb ba c7 cd bc df fa 62 bd 0e 1b 35 3c
       -0.005898225 -0.025119651 -0.05541503 0.011053814
000110 96 f5 8f 3d 9d 4c 85 3d f9 28 b1 3d 3d 42 ff 3d
       0.07029264 0.065087534 0.08650393 0.12463806
000120 b1 62 05 3e bc 93 f7 3d f0 26 17 bd ae 05 cb 3d
       0.13025929 0.12088725 -0.036902368 0.09913193
000130 8a 71 88 ba 99 4a 14 bc 0f 79 cc bd 96 52 b6 3c
       -0.0010409814 -0.009050989 -0.099840276 0.022256177
000140 d9 f6 16 3e da 39 9e 3d 9a 5c d6 bd 84 9d 54 3d
       0.14742602 0.07725878 -0.10466881 0.05190803
000150 06 d0 c3 3d a4 08 2e bc f0 32 4b bc 5e e5 61 3d
       0.09561162 -0.010622177 -0.012402281 0.055150382
000160 07 2f 22 bd e6 0b 80 bd e4 4c 9f 3d ce f1 d4 bc
       -0.03959563 -0.062522694 0.077783376 -0.025994208
000170 31 36 9d 3c 11 da d5 bd 64 de db 3d 9a 9d 01 3d
       0.01919088 -0.104419835 0.10735777 0.03164444
000180 60 ed 63 bb 70 ea 1c 3e 4d 71 96 bd 29 c4 b6 3d
       -0.0034778938 0.15323806 -0.07345829 0.08924133
000190 12 2b bf 3d dd e9 06 3e b5 e1 8f bd 17 92 8d bd
       0.09334387 0.1317515 -0.07025472 -0.0691263
0001a0 32 e7 49 3c ff 1c bc 3d 40 48 03 3e 9c bc 80 3d
       0.012323188 0.09185218 0.1282053 0.062859744
0001b0 59 c9 9f 3c 28 ab f1 3b b3 91 a0 3d a3 d0 cd bc
       0.01950519 0.0073751397 0.0784029 -0.0251239
0001c0 ec d1 bf 3b f5 bc 9c bc b1 13 00 3d 15 02 44 bd
       0.005853882 -0.01913307 0.03126878 -0.047853548
0001d0 50 40 a3 bd 67 73 a6 bc 8c b2 95 bc b2 5b 19 bd
       -0.07971251 -0.0203187 -0.018273614 -0.037440963
0001e0 72 03 6d 3d f6 55 a3 bd 0f 38 c3 bc fe ba 00 be
       0.057864614 -0.0797538 -0.023830442 -0.12571332
0001f0 dd 27 17 bd c2 85 3e 3d 6c 05 f3 3d f8 9e cc bd
       -0.03690325 0.04651428 0.118662685 -0.099912584
000200 f2 33 82 bc f2 0b cd bb f2 87 bf 3d 2a 3e 50 3d
       -0.01589391 -0.0062575275 0.093521014 0.050840534
000210 cf e4 ff 3d aa 1e f2 3c c9 17 78 bd aa f5 b2 3d
       0.12494814 0.029555637 -0.06056956 0.08738263
000220 04 98 ae 3b 77 aa 3f 3d c4 c2 b2 bd 71 b6 1f 3d
       0.0053281803 0.046793427 -0.08728555 0.03899235
000230 6d 4b 16 3d 0a 5d 4d 3c e9 a5 24 bc 99 6b d9 3d
       0.036693025 0.012534389 -0.010049322 0.10616226
000240 db 27 82 3d 31 f8 98 bc a6 7f eb 3c 9f f9 31 3c
       0.06355258 -0.018673034 0.028747391 0.010862737
000250 ae 95 e7 bd 74 5b 87 bd 27 79 22 3d d9 cb 2e bd
       -0.11307846 -0.0660924 0.03966632 -0.042674873
000260 3c ec 59 bc 78 d7 25 bd e5 ef da bd 3e 91 b5 bd
       -0.013300952 -0.04048869 -0.106902875 -0.088655934
000270 09 be a1 bd a7 61 17 bd 22 43 06 bd 06 50 2b bd
       -0.078975745 -0.036958363 -0.032778867 -0.041824363
000280 28 c6 ab bd 92 98 8c bd 05 9a 3a bd ae 2b 05 3e
       -0.08387405 -0.06865038 -0.04555704 0.13004944
000290 d7 22 ce 3d 6d dd a6 3d cd 44 69 3d 08 62 8f 3d
       0.10065239 0.08147702 0.05695038 0.0700112
0002a0 87 6a 16 bc 65 df 89 bd 5f 3a 2b 3d 21 b2 0f 3d
       -0.009180672 -0.06732062 0.041803714 0.035081986
0002b0 92 08 92 bc ed c9 13 3d 59 da e1 bc 32 a0 a5 3c
       -0.017826352 0.036081243 -0.027569937 0.020217989
0002c0 d7 f1 d0 bd df 83 6b 3c 31 b8 14 3e 13 a2 ca b9
       -0.10202377 0.014374702 0.14523388 -0.00038649197
0002d0 ce 8f c5 bd 23 3d dd 3d f6 7c 84 bd 89 7f 62 3d
       -0.09646569 0.108026765 -0.06469147 0.05529741
0002e0 e2 6d 97 3d 89 ef 00 3d 1b 9c 18 3d 91 1b a2 3d
       0.07394005 0.03147844 0.03725825 0.07915414
0002f0 a5 a6 97 bd 16 5b f7 3d f5 7c e6 3d 95 80 e7 3d
       -0.07404832 0.1207792 0.112543024 0.11303822
000300 d2 31 16 3e fb 6a 24 3e b7 a9 0b bd 0c f3 36 3e
       0.14667442 0.16056435 -0.0340974 0.17866153
000310 c3 2d a5 bd 62 2d a7 bb 14 71 27 3e 57 53 92 3d
       -0.08065369 -0.0051018456 0.1635173 0.07144802
000320 26 9d 44 3d 27 dd 42 bd d3 27 6e bc c3 fc 31 bd
       0.04800143 -0.04757419 -0.014535862 -0.043453943
000330 80 6d 20 3d b2 8d 97 bd 1a ff 0a 3e 5f 04 29 3d
       0.039166927 -0.07400073 0.13573876 0.041263934
000340 2e 5c 41 bd 6a ef c2 bd 17 24 ee bc e7 d6 7e 3d
       -0.04720705 -0.09518321 -0.029069943 0.062216666
000350 7a de 3e 3d ec 9e a6 3d f8 cb 01 3e f8 6d 07 3d
       0.04659889 0.08135781 0.12675464 0.03306386
000360 51 00 59 bd ce 8c f8 3d fb 41 08 bc ef 02 7d 3d
       -0.052978817 0.12136231 -0.008316512 0.061770376
000370 32 cf 4d 3d 8b 85 1e 3e 84 11 92 bd 33 97 ac 3d
       0.050246425 0.1548063 -0.07132247 0.084272765
000380 cf 15 bd 3d 83 82 07 3e f3 72 3f 3d 53 45 d0 3d
       0.09232675 0.1323338 0.046740483 0.101694725
000390 35 b9 50 3d ba 4f 92 3d 3f c9 b2 3c 81 e8 0e bd
       0.050957877 0.07144113 0.021824477 -0.0348897
0003a0 c8 18 45 3e a3 c0 dc 3d ca ef 0d 3e 1c e4 d7 3b
       0.19247735 0.1077893 0.13861004 0.006588472
0003b0 be a5 88 3d ea 2c a0 3d 67 49 e9 bc 18 f4 b5 3d
       0.06672238 0.07821067 -0.028477384 0.08884448
0003c0 31 38 12 bd 6b 66 47 3d 78 86 1b bd f6 9f a2 bd
       -0.03569812 0.048681658 -0.037970036 -0.079406664
0003d0 34 88 aa bc 4d 22 c4 3d 74 6f 9b 3d 7d 51 95 3d
       -0.0208169 0.09576855 0.07589617 0.07290933
0003e0 aa 87 b1 bd c8 9c 18 bd f0 8e a3 3d 80 4f ce bd
       -0.08668454 -0.037258893 0.079862475 -0.10073757
0003f0 58 9d 98 bd 7e 51 af bd f6 e2 b5 bd 0d 0b 7c 3d
       -0.07451886 -0.08560465 -0.0888118 0.061533976

lstm.bias_hh_l0 f4 [256]
000000 fc 98 64 bd e5 e7 70 3d 35 72 6d 3c 58 a9 be 3d
       -0.05580996 0.0588149 0.014492561 0.093096435
000010 b5 50 dc 3b 7f 32 ba bb a3 3a 21 bd 96 5d bf 3d
       0.006723488 -0.005682289 -0.03936256 0.09344022
000020 ba 8e a5 bd 67 49 56 bd 23 a9 8c 3c ad 68 ee 3d
       -0.080838636 -0.052316096 0.017170494 0.11641059
000030 1d f1 9d bc ea c2 32 bd 96 8a ca bc b8 7f 87 bd
       -0.01928001 -0.043642916 -0.024724286 -0.06616157
000040 9a dd 31 bd b1 a4 73 bd cd 32 96 3d f6 fe a8 bd
       -0.043424226 -0.059483234 0.07333908 -0.08251755
000050 fd 0d 4e bc 90 db 5b 3d 9c 7d e2 3d d6 cc 10 3e
       -0.012576577 0.053676188 0.11059114 0.14140639
000060 2a df a2 3d 75 62 7e 3b bc fd 0a 3e 03 7c b8 bc
       0.079527214 0.003881601 0.13573354 -0.02252007
000070 32 26 4b 3e 4b db 18 3e b5 ea c8 3b 9b 12 1e bd
       0.19838789 0.14927404 0.006131495 -0.038591962
000080 2f c4 bf bd 4a 74 14 3d d0 4a a0 bd d8 92 d2 3c
       -0.09363591 0.036243714 -0.07826769 0.025704786
000090 a0 0f 02 3d 20 9a 9c bc 83 d8 d3 3c 47 89 ff 3d
       0.031753182 -0.019116461 0.025860077 0.124773555
0000a0 bb 5b 18 3e c1 63 41 bc 0b 95 b7 bc 67 1f 13 3e
       0.14878742 -0.011803568 -0.022409936 0.14367448
0000b0 dc f2 be ba 76 5b ef 3d b2 b9 9c bd b1 b1 66 bb
       -0.0014568227 0.11687367 -0.07652606 -0.0035201127
0000c0 bf 8b a2 bd 2d b7 c0 3d e7 f5 0d 3c 0c fe 5c bd
       -0.07936811 0.09409938 0.008664585 -0.053953215
0000d0 35 68 bb bd ef 45 6a 3c a4 15 ee 3d a9 4a 89 bd
       -0.09150735 0.0142989 0.11625221 -0.067036934
0000e0 85 d4 e0 3c f1 a4 d8 3d c3 e2 ec bb 15 8f c1 bb
       0.027445087 0.10578335 -0.0072291805 -0.0059069493
0000f0 40 8f 8b 3d 69 40 12 3e 00 63 f7 3d 18 81 46 3c
       0.06814432 0.14282383 0.120794296 0.012115739
000100 c9 97 8b 3c 28 51 68 bc e5 ae 93 3d 18 47 8a 3d
       0.01704015 -0.014179505 0.07211093 0.06751841
000110 da 5b 78 3d 7f 19 a1 bd e8 42 a3 3d ec e7 eb bd
       0.06063447 -0.07866191 0.07971746 -0.11518845
000120 43 62 bc 3d 91 1d b0 3d d9 95 8a 3c 73 34 40 bc
       0.091984294 0.08599389 0.016917156 -0.011731255
000130 00 e7 b1 3d 1b 51 0d 3e a9 fb f1 3c 1b 0e 66 3d
       0.08686638 0.1380047 0.029538946 0.056165796
000140 12 d3 fe 3d 6f eb aa bd 13 9f 22 3c 62 5e a2 bd
       0.12442602 -0.08345687 0.009925622 -0.07928158
000150 c4 f4 5f 3d f5 fa 01 be 14 4b 73 3c d8 98 f2 3d
       0.054676786 -0.12693389 0.014849443 0.11845559
000160 68 e1 c2 3d 6a 3c 95 bd fe b5 e5 3d b9 58 b5 3c
       0.09515649 -0.07286914 0.11216353 0.022137033
000170 ef c5 86 3d d4 d8 1f 3d e0 97 b7 bb e5 0e b6 3d
       0.065807216 0.039025143 -0.0056028217 0.0888956
000180 ba c7 82 bd 25 0f 57 bc b2 f1 56 bc 6c 59 fc bb
       -0.06385751 -0.013126169 -0.013119148 -0.0077010896
000190 1c d2 a4 3d e5 10 ac ba e3 5e 61 3d 40 1a 14 3d
       0.08047888 -0.0013127594 0.05502213 0.036157846
0001a0 fa 2b 81 3d b6 ba 66 bc ad f4 98 3d ed b6 b1 3c
       0.06307216 -0.014082601 0.07468543 0.021693671
0001b0 ba 76 ab 3d 70 76 90 3d ed d5 b9 3d 63 57 eb bb
       0.08372255 0.0705384 0.09074006 -0.007182048
0001c0 a4 16 05 3d 47 9b a4 3d da 6e 12 3e 69 8a ee 3b
       0.032492295 0.08037429 0.14300099 0.0072796834
0001d0 2c 18 d4 bd 82 92 cb bd 08 8b 40 bd 26 6e 82 bd
       -0.10356173 -0.099400535 -0.04700759 -0.063686654
0001e0 85 9b a5 bd 4a b6 2d 3d 56 5b 44 3c 60 7a bd 3d
       -0.080863036 0.042410173 0.011984667 0.09251857
0001f0 6a 19 33 bc c7 af c5 bc 84 e3 7c bd 02 cb 96 bd
       -0.010931352 -0.024131669 -0.061740413 -0.073629394
000200 cb 8e e6 bd 29 08 58 3c e7 12 f6 3c 1c 2f 79 3d
       -0.11257704 0.013185539 0.03003831 0.060835943
000210 fd ae 77 3d a9 3b 75 bd 79 dc 39 3d 45 78 32 bd
       0.060469616 -0.05987135 0.045376275 -0.04357173
000220 aa c3 cb 3b 8d 30 e1 bd 50 6b 5f 3d 44 18 80 bd
       0.0062183933 -0.109955885 0.0545457 -0.06254628
000230 41 ed b0 bd 3e 7d b6 bd a0 86 0c be 93 8c ef 3d
       -0.086390026 -0.08910607 -0.1372323 0.11696734
000240 ff af 5a 3c d2 76 e7 bd bf ea 04 3e 88 ba f7 bd
       0.013347625 -0.1130196 0.12980174 -0.12096125
000250 30 b6 a5 3d f4 13 2a bd 61 02 13 bd 3c af 05 be
       0.0809139 -0.041522935 -0.03589094 -0.13055128
000260 d8 b0 d6 bd a1 18 ef 3d a4 3f fa 3c 1e 6c d9 bd
       -0.10482949 0.116746195 0.030547924 -0.10616325
000270 75 5e 29 bd 35 ad 41 3d 80 93 fd bd 1a 72 03 3b
       -0.041349847 0.047284324 -0.12381649 0.0020057024
000280 a1 0c 52 bd 48 78 d8 3d b7 49 54 3d cd d0 49 bd
       -0.051281575 0.10569817 0.051828112 -0.049271394
000290 ea bb dd bb c2 2b 9e b8 08 94 99 bd 3b 60 04 3e
       -0.006766786 -7.5421776e-05 -0.07498938 0.12927334
0002a0 09 05 f0 3c dc 4c fd bd b5 86 b6 3c 3b 41 e6 bd
       0.029299276 -0.123681754 0.02228103 -0.112429105
0002b0 ae 7f dd 3d 4a 36 e2 bd cf 25 40 bd 84 be 7b bd
       0.108153686 -0.11045511 -0.046911057 -0.061460987
0002c0 5b 7d 53 bd 53 6b b6 3d ed bb 32 bc 2c e2 92 3d
       -0.05163322 0.08907189 -0.010909063 0.07172045
0002d0 92 17 b5 3d c1 0f 9f 3d 74 e2 79 bd 6c 86 d8 bc
       0.08842386 0.07766677 -0.06100698 -0.026431285
0002e0 5f 2b 3d bd aa 1c 98 bd 43 0d 52 3d 0e a2 81 3d
       -0.04618394 -0.07427342 0.05128218 0.063297376
0002f0 49 09 fa bd 36 73 f3 3d 6a 4d e3 3c 4b 66 95 3c
       -0.12208802 0.11887209 0.027746875 0.018237254
000300 ff 97 64 bb 73 cc 55 3e 34 62 bb 3c 8f 6d 14 3e
       -0.0034880636 0.20878772 0.022873975 0.14494918
000310 ee 47 80 3d 2c f3 79 3d 12 85 ad 3d 7d 09 35 bd
       0.062637195 0.061022922 0.08472647 -0.0441985
000320 4e 94 ce 3d c1 be 84 bd 98 7c 41 3d a9 ab 55 3d
       0.100868806 -0.06481696 0.047237962 0.05216566
000330 81 e2 ab bd ff 08 73 3d 9e a2 93 3c 03 52 e3 3d
       -0.083928116 0.05933475 0.018021878 0.11099627
000340 2f 22 20 3d 76 4b d4 bc 62 ea 14 3d 8d 6e a1 bd
       0.0390951 -0.025914889 0.036356337 -0.07882414
000350 f2 9d 0d 3d 6f d1 67 3d 31 eb 03 3e 56 80 49 bd
       0.034574457 0.056596216 0.12882687 -0.049194656
000360 33 19 2d 3e 82 cc 4c 3d 14 de e3 bc 2b 89 c5 bb
       0.16904144 0.04999972 -0.027815856 -0.0060283146
000370 0e b1 b2 3d 18 ce b1 bd 4e e4 d0 bd 25 21 f5 3d
       0.08725177 -0.086818874 -0.10199796 0.119692124
000380 1f e5 ca bd 48 d7 35 3c 2c 64 86 bd 99 c8 03 3d
       -0.09906983 0.01109869 -0.06562075 0.032173727
000390 ee 4a c6 3c 43 7f 55 3d 58 94 6d 3d 35 f7 00 bd
       0.024205651 0.05212332 0.0580028 -0.031485755
0003a0 84 5f 1c 3e 59 62 ed 3d fc 9e 07 bd 72 08 5f bd
       0.15270811 0.11591024 -0.033110604 -0.054451413
0003b0 77 f5 69 bd f8 14 d3 bd 77 b3 36 3d 90 a5 1f bd
       -0.05711886 -0.10306734 0.044604745 -0.038976252
0003c0 64 e3 15 3e 38 80 d8 3d 7d 24 b0 3d 71 22 37 bb
       0.14637524 0.10571331 0.086007096 -0.0027944113
0003d0 c5 a0 f5 3d 43 21 1a bd 00 8a 87 bd 01 e9 e6 3d
       0.11993555 -0.037629377 -0.06618118 0.11274911
0003e0 d1 85 4f 3d 7d 94 97 3d 30 ed 77 bb 35 49 dc bc
       0.050664727 0.07401369 -0.0037830584 -0.026890377
0003f0 77 42 28 3d 7e da bc 3d a3 1e 2e 3d a9 f3 0a 3e
       0.04107901 0.092213616 0.042509686 0.13569511

lstm.weight_ih_l1 f4 [256, 64]
000000 3b a4 a7 3d a3 bc 0c be a0 42 07 bb 30 4b 6d be
       0.08185621 -0.13743834 -0.0020639077 -0.23173213
000010 b7 f9 ec bd 32 10 b9 3c 3c 9d d9 3d ee 7b 99 bd
       -0.11571067 0.02259073 0.10625693 -0.07494341
000020 34 c8 02 be fa 86 a3 bd 54 ca 37 3d a7 4b ac 3d
       -0.12771684 -0.07984729 0.04487069 0.08412867
000030 29 27 e4 3d 4b 60 77 bc c9 50 8e 3d 8d c5 fd 3d
       0.11140282 -0.015098642 0.06949002 0.123911954
000040 30 94 b9 bd 7c 35 76 bd 2e 71 f6 3d 81 81 d8 3d
       -0.09061468 -0.0601096 0.12033306 0.10571576
000050 06 8c 80 bd 52 87 07 bd af f7 e1 ba de 6b ba bd
       -0.06276707 -0.033088036 -0.0017239953 -0.09102605
000060 fb 61 d9 bd bc e3 09 bd 49 6b 9a bd a0 65 98 3c
       -0.106143914 -0.03366445 -0.07539994 0.018603146
000070 ee d9 2d be 5f 58 f6 bc d3 7d 7e 3d 00 6a 98 bd
       -0.16977665 -0.030071435 0.062131714 -0.07442093
000080 cd 1e a7 bc aa 1d b4 bc 92 04 00 3d 79 3d 57 3d
       -0.02040043 -0.021986801 0.03125436 0.05254886
000090 94 f8 bd bb eb b5 de bd b6 a4 8e bd dc 4d da 3d
       -0.005797455 -0.10874542 -0.0696501 0.10659382
0000a0 d5 43 5f 3d d7 21 94 3c fb 8f 00 3e bd b2 3b 3d
       0.05450805 0.018082542 0.12554924 0.045824755
0000b0 de c4 08 3c 3c 60 e3 bd f4 c8 e5 3d 23 dd 02 bd
       0.008347718 -0.111023396 0.112199694 -0.031949174
0000c0 96 e7 e3 bd ee d5 04 3e 29 83 a1 3d 3e 6a 40 bc
       -0.11128156 0.12972233 0.07886345 -0.01174408
0000d0 66 77 0d be b9 71 cb bd 90 ed 0b 3e c4 b6 45 3d
       -0.13815078 -0.099338 0.13664842 0.048270002
0000e0 99 5e e3 3d c3 b9 cd bd 96 b7 9b bc d1 2b 9c 3d
       0.111020274 -0.10045197 -0.019008439 0.07625545
0000f0 41 a0 bd bc 29 64 08 bd 30 d2 52 ba 4e e8 9a 3d
       -0.023147704 -0.033298645 -0.00080421846 0.0756384
000100 bd 14 eb 3c 6c 4b 72 bd 75 06 86 bc 93 4d 5c be
       0.028696412 -0.05915396 -0.0163605 -0.21513967
000110 a1 12 c6 3d f7 5f e7 bd 1a 38 14 bc 6d a3 40 3d
       0.09671522 -0.11297601 -0.009046579 0.047030855
000120 09 40 98 bc cd 90 65 bd 02 65 2f bd 83 82 3e 3d
       -0.018585222 -0.056046296 -0.042820938 0.046511184
000130 73 f3 31 bd c3 07 1e be df f5 64 3c ac a8 db bd
       -0.043445062 -0.15432648 0.013974636 -0.10725531
000140 5b 8b a1 bd 08 87 9d 3d e6 d1 d5 bc 7f 44 63 3d
       -0.07887908 0.07691771 -0.026101064 0.055485245
000150 a1 df d5 3d f7 ed 93 bd 1f d1 03 3e 30 81 74 3d
       0.104430445 -0.072231226 0.12872742 0.059693515
000160 54 85 b9 3d 53 d8 38 bc af 50 12 bd 18 58 83 3d
       0.090586334 -0.011282044 -0.035721477 0.06413287
000170 55 89 0b 3d 22 01 bf 3c 28 07 74 bd f7 84 94 bc
       0.034066517 0.02331597 -0.059577137 -0.018129809
000180 7c 01 08 be e8 28 03 be 8a 35 4f bd 45 9f 4c 3e
       -0.13281816 -0.12808573 -0.05058817 0.19982632
000190 aa cf a0 bd 30 ee e4 bc 96 7a 8f 3d 11 f1 97 bd
       -0.07852109 -0.027945608 0.07005803 -0.07419027
0001a0 9e e6 a3 3d bf 27 9c bd 41 f6 6e bd e3 65 8d bc
       0.08002971 -0.076247685 -0.058340315 -0.017260497
0001b0 17 8e 20 bc b8 b7 cd bd 45 23 a1 bd 29 73 0f 3d
       -0.009799502 -0.10044807 -0.07868055 0.035021935
0001c0 c6 6e ee 3d 64 01 07 bd d2 4b bf 3d 4f a7 fe 3d
       0.11642222 -0.03296031 0.093406335 0.12434255
0001d0 ce 1b b3 3b c2 c1 92 bd 14 fc 2e 3e e3 a2 ae bd
       0.005465961 -0.071658626 0.17088348 -0.08527162
0001e0 61 01 9b bd 63 b7 55 3c 57 67 94 3d 9b ac 79 bd
       -0.075686224 0.013044211 0.07246273 -0.060955625
0001f0 9f a4 c0 bb 53 1f ac bd ae 66 0c 3c 11 99 5b bc
       -0.0058789994 -0.08404412 0.008569403 -0.013403193
000200 79 8a 10 be 90 50 1d bd fa 9a ac bd e8 8c f4 bd
       -0.14115323 -0.03840691 -0.08427997 -0.11940938
000210 d8 49 92 bd dc a4 9a 3c d6 fc 99 3d 2d 76 86 bd
       -0.07142991 0.01887744 0.07518928 -0.06565509
000220 57 ac 84 bd 1f f0 df bc 56 78 81 3d 7c fb 0c 3e
       -0.06478184 -0.027336178 0.063217804 0.13767809
000230 18 74 7d bd 32 6c cf bd a3 02 c6 bc 01 d4 ba bd
       -0.061878294 -0.101280585 -0.02417118 -0.09122468
000240 b1 3f 01 3e a2 8e 8a 3d 38 a0 a1 3d 70 e5 c6 3d
       0.12621953 0.06765486 0.078918874 0.097117305
000250 01 9f d4 bd c0 f8 84 bd d7 49 49 bd c8 65 02 be
       -0.1038189 -0.06492758 -0.049142685 -0.12734139
000260 16 a4 4d 3d 09 74 af 3c 64 70 62 bd 67 95 d5 bd
       0.050205313 0.021417635 -0.055282965 -0.10428887
000270 dc ee b8 bc 9c be c6 3d f6 62 9f bc 72 60 b4 3d
       -0.022574835 0.097043246 -0.019456368 0.08807458
000280 88 2e 40 3c 3b 3f 6f 3d 59 af 58 3e 04 63 fb 3c
       0.011729844 0.05840991 0.2116064 0.030686863
000290 ae 26 7b 3d 16 a7 d8 bd 7d 44 d7 3b f7 86 d1 3d
       0.061316185 -0.10578744 0.0065694437 0.102308206
0002a0 34 02 53 bd bf b6 fd 3d 0d a0 37 bb 0b d6 b7 bd
       -0.051515773 0.12388372 -0.0028018982 -0.08976372
0002b0 e7 6b ab bd d8 4a 7c 3c 0f d5 a1 bd 1a 67 78 3d
       -0.0837019 0.0153987035 -0.07901966 0.0606452
0002c0 98 90 74 bd d7 d8 51 bc d0 a5 ff 3d 17 cf ad bd
       -0.059708208 -0.012808046 0.12482798 -0.08486765
0002d0 c1 f3 a3 bd 82 27 f0 3d 39 29 7c bd db 5e c7 bd
       -0.08005477 0.117262855 -0.06156275 -0.09734889
0002e0 f0 03 e2 bb 62 86 12 3d 83 18 1d 3d be a5 1f bd
       -0.006897442 0.03577269 0.038353454 -0.038976423
0002f0 37 3a ca 3c a1 cc 06 3e b8 2c fe bc e1 d8 8a 3d
       0.024685962 0.13163997 -0.031027183 0.067796476
000300 7e bb ad 3c 14 cd be 3d d8 d2 8f bd 18 57 b3 3d
       0.021207567 0.09316459 -0.07022637 0.08756846
000310 6c 01 04 3e 9e 3d 26 be ed 29 8d 3d 6a b2 49 3d
       0.12891167 -0.16234443 0.06892762 0.049242415
000320 3e 4b fc 3c 36 c2 17 3e 3a 0f d0 3b 1f b1 a3 3c
       0.030797597 0.1482018 0.0063494714 0.019981919
000330 b8 c5 0b bd 2c 77 83 bd 59 57 ac bd 4d d8 97 bd
       -0.034124106 -0.064192146 -0.08415098 -0.07414303
000340 de ef e9 bd 87 d8 ef bd 27 5b e4 3d 0c af fa 3b
       -0.11422704 -0.11711221 0.111501984 0.0076502617
000350 c1 a2 78 bd 9d 1f a7 3d 70 27 be 3c 70 53 0a 3e
       -0.06070209 0.08160327 0.023212165 0.13508391
000360 73 b1 2f 3d 8f d2 9c 3d 6c cd cf 3c 4c 26 6f bd
       0.04289384 0.07657348 0.025366507 -0.058386132
000370 df c1 25 3d 02 31 23 3c d8 a9 a1 bc 95 81 a5 bd
       0.040468093 0.009960415 -0.019734308 -0.080813564
000380 71 df 44 3d 2f ba 08 bd 20 ee 9e 3b 16 a6 00 3d
       0.048064653 -0.033380684 0.004850164 0.031408392
000390 87 47 6a bd 42 e7 15 bd 85 d3 83 bc 12 ab c5 bd
       -0.05719712 -0.036597498 -0.016092071 -0.0965177
0003a0 53 bc 84 3d 01 fb b3 bd fb 71 80 3c 08 3a 22 bd
       0.064812325 -0.087881096 0.01567935 -0.039606124
0003b0 ab 70 af 3d 38 92 b9 bc 3c 5c 4b 3d ab 48 35 3c
       0.085664116 -0.02265273 0.04964851 0.011064689
0003c0 ee 4e 00 3e f8 40 aa bd b6 ab 03 bd 5d 04 e0 bc
       0.1253011 -0.08313173 -0.03214618 -0.02734583
0003d0 a7 05 ec bc 80 d5 cb bc 42 b3 85 bd 8a 66 19 3e
       -0.028811289 -0.024882078 -0.06528331 0.14980522
0003e0 68 be 8a 3d 19 5a c2 3d 94 c0 81 3d 50 8c ac bc
       0.06774598 0.09489841 0.063355595 -0.021063
0003f0 60 10 d6 bd 1b a6 9c 3d 2d a7 61 bd 9f 0a 52 bd
       -0.10452342 0.076488696 -0.055091072 -0.05127966

lstm.weight_hh_l1 f4 [256, 64]
000000 0d 29 ab bc a2 23 8a bd 9a f0 29 bc 56 49 e9 3d
       -0.020893598 -0.06745078 -0.010372305 0.11390941
000010 e3 63 02 be 23 cd 84 bc 00 1b d4 3d a8 5d a2 bd
       -0.12733416 -0.016211098 0.10356712 -0.0792802
000020 ee 52 9d bc 3a 9b 82 3a c3 a0 ee bc fb ac 93 3c
       -0.019204583 0.0009964474 -0.029129392 0.01802682
000030 0e b5 96 bc bf b5 bf 3d 1a b8 c5 bd 2d d2 03 bd
       -0.01839688 0.09360837 -0.09654255 -0.03218286
000040 61 14 62 bd e3 d8 90 bd b3 9e 9b 3c 25 13 a6 3d
       -0.055195216 -0.07072618 0.018996572 0.0810912
000050 2b a7 b4 3d e9 42 96 3d d3 a2 19 bd 0a 3c e8 bc
       0.08820947 0.07336981 -0.037508797 -0.028348941
000060 9c 84 c9 3d 9e 56 f0 bb e6 42 dc 3d 49 44 a9 3d
       0.09839746 -0.0073345443 0.10754947 0.082649775
000070 d9 24 de bd 06 da 16 bd 43 16 ac 3d f4 a4 0d bd
       -0.10846872 -0.036829017 0.084026836 -0.03458114
000080 9b fb 80 bd d7 1d f2 3c 4b 59 8c 3d b3 3f b1 3c
       -0.0629799 0.029555244 0.06852969 0.02163682
000090 b4 8e 7a bd ad 66 cb bd 26 df ac 3d 8f eb 8c bd
       -0.06117125 -0.09931693 0.08441 -0.06880867
0000a0 7b 42 57 bc dd c1 ed 3c 00 c8 d1 3c 29 ae 9c 3d
       -0.013138409 0.029023105 0.025608063 0.07650406
0000b0 d4 d1 b6 bc 31 fc ac bd 39 e8 0f bd 8f 2e fa 3b
       -0.02231685 -0.08446539 -0.035133574 0.0076349447
0000c0 9b 86 2f 3d 66 59 09 bd 0d 3f a5 3d eb 5f de 3c
       0.04285298 -0.033532523 0.080686666 0.027145347
0000d0 7e a6 53 bd 05 2e 24 3d f7 6b b8 3d 5c 65 17 3d
       -0.05167245 0.04008295 0.09004968 0.0369619
0000e0 30 0b b1 bb af 47 c4 3c 56 59 d4 bc 62 69 d5 3d
       -0.005402945 0.023959963 -0.025921505 0.10420491
0000f0 79 b2 bf 3d ed fc b4 bd c9 d9 09 3d 37 d7 cb 3c
       0.09360213 -0.08837304 0.03365496 0.024882896
000100 66 c8 a7 bb 95 f8 78 bd 45 c6 7b bd be 11 f2 bd
       -0.005120325 -0.06078394 -0.06146838 -0.1181979
000110 7c cc 86 3d 0d a7 8d 3d 78 0b 79 3c 7b c2 fd 3d
       0.06581971 0.06916628 0.015200488 0.1239061
000120 55 34 40 3d 31 c2 ac 3d 78 72 ed bd db af fd bc
       0.046924908 0.084354766 -0.11594099 -0.030967643
000130 13 87 5c 3d 6b 00 49 bd 99 d3 88 3d 50 1a 40 3d
       0.053839754 -0.049072664 0.06680984 0.046900094
000140 bd 18 19 bd 96 da 20 bd ec d0 87 3c 45 93 d4 bd
       -0.037377108 -0.03927096 0.016579114 -0.10379652
000150 5d 24 6b bd f9 e7 a3 bd 02 68 ed 3d 2f de ef 3d
       -0.057407726 -0.0800323 0.115921035 0.117123
000160 79 f7 22 bd 4f a8 6f 3e 8c 55 9f bd 45 e1 ca 3d
       -0.03978679 0.23404048 -0.07779989 0.09906248
000170 8c 74 ad 3d 3d 5e ac bd f2 4c a1 3d 00 45 06 bd
       0.08469495 -0.08416412 0.07876004 -0.032780647
000180 3f 5d 98 bd 0e 34 b4 3d 06 07 0b be f8 d8 05 3d
       -0.0743966 0.08798991 -0.13576898 0.03267762
000190 23 85 0d 3c 89 b4 b2 3d b0 2f 0c 3d 66 55 07 be
       0.008637699 0.087258406 0.034225166 -0.1321617
0001a0 b6 9c de 3d 39 b1 c6 bd 14 b4 06 3d be 24 a6 3d
       0.10869734 -0.09701771 0.03288658 0.08112477
0001b0 67 2b 69 3c f8 d0 b6 bc e6 5a d0 bd bf a2 6f 3d
       0.014231539 -0.022316441 -0.101735875 0.058504816
0001c0 bb 31 90 bd af 4a a3 3d f2 e2 9c 3d fa 5d 92 bd
       -0.07040735 0.07973229 0.07660474 -0.07146831
0001d0 ea 6c 08 bd 91 4e cc bd e3 ed b5 3c 0b 86 2b 3d
       -0.033306994 -0.09975923 0.02220816 0.04187588
0001e0 92 01 17 3e 4b 38 b8 3d e2 2f 3e bd 9e 6a 68 bd
       0.14746693 0.08995112 -0.046432383 -0.056742303
0001f0 99 55 a5 3d ae 70 30 3e ef d5 1e bd bd b3 31 3c
       0.08072967 0.17230484 -0.03877824 0.010846076
000200 fd 66 2c 3d 57 73 bb bc 53 e5 0f bd 23 c3 e7 3d
       0.042090405 -0.022882147 -0.03513081 0.11316516
000210 cc ae 08 bd 0e 3c 05 bd aa 61 de 3d 15 3f d5 3c
       -0.033369824 -0.032527976 0.10858472 0.026031056
000220 ac 57 36 3d 79 2f 87 bd 6c 1f c7 bd 52 a4 c7 3d
       0.044517204 -0.066008516 -0.0972279 0.097481385
000230 fd 53 f1 3d fd ba a8 3c b2 37 2c 3d 3a 5d e2 bd
       0.117835976 0.020596975 0.042045303 -0.11052938
000240 7b e8 00 3d ef 2e ef bd e7 6c 02 3c 31 f0 a9 3c
       0.03147171 -0.11678874 0.007960535 0.020744415
000250 7e 55 f3 3d 75 06 f1 3c ba a7 ab bd 6d a6 72 3d
       0.11881541 0.029422024 -0.08381601 0.059240747
000260 9f b8 a1 bd 4b ce 5a 3d f8 9d a6 3d b4 d5 8b 3c
       -0.07896542 0.053419393 0.08135599 0.017069675
000270 3f 3b 00 bd d6 64 8b bd d1 1b b6 bc bc 2f 45 3d
       -0.0313065 -0.06806342 -0.02223006 0.048141226
000280 8f 85 8a 3d ef 49 ac bc 3d 5d af bd 1d dc 2f 3c
       0.067637555 -0.021031348 -0.08562706 0.010733631
000290 1a d2 7c bd 1b f6 18 bd dd f3 91 3c 0e a0 6a 3c
       -0.061723806 -0.03734408 0.017816478 0.014320387
0002a0 7f e0 c6 3b ae 54 c7 bd 96 f1 3e 3d ba 0a 45 bd
       0.0060692425 -0.09732948 0.046617113 -0.048105933
0002b0 c1 d7 79 bd 18 bb be bd 90 89 cd 3d 61 6a 1e bd
       -0.060996775 -0.09313029 0.100360036 -0.03867567
0002c0 1b 7e 73 3b 07 a0 b9 3d 91 9c 74 3d 75 4a ca bd
       0.0037154022 0.09063726 0.059719626 -0.09877483
0002d0 2b e4 c9 bc e9 cb 90 bc 35 2c dc ba b7 05 d9 bd
       -0.024644932 -0.017675357 -0.0016797843 -0.10596793
0002e0 de 43 a4 3d 8a c5 80 3c b0 5d c8 3d 73 fb ba bd
       0.08020757 0.015719194 0.097834945 -0.091299914
0002f0 9e 82 97 3d 28 cf 13 3d 8d 75 9c bc 5e 08 6e 3d
       0.0739796 0.03608623 -0.019099021 0.05811345
000300 ff bd 54 bd d9 04 94 bd 8d 63 b6 3d 3d ac 50 3d
       -0.051939007 -0.07227487 0.089057066 0.05094551
000310 5a 4d 86 bd 27 50 62 3b 7f c2 07 3e 7b 0d b2 3d
       -0.065577224 0.0034532638 0.13257788 0.086939774
000320 7a a7 8f 3d 49 a4 4f 3d cf 2f 90 3d fa 0f 97 bd
       0.070143655 0.050693784 0.07040369 -0.07376094
000330 45 10 17 3d e6 72 81 bb 7d 2e fd 3d b0 ce 77 bc
       0.03688075 -0.0039504645 0.123623826 -0.015124962
000340 48 fe c1 bc de 4e b1 3d 63 9c b8 bc 8f 4d 33 3d
       -0.023680821 0.08657621 -0.022535508 0.043775138
000350 0b 51 f9 3c 22 e2 81 3d fe 1a 24 3d 12 6d e9 3d
       0.030434152 0.063419595 0.040064804 0.11397757
000360 fe e7 00 bd 8b b3 1e 3e fc b2 c2 bd 0b 6a 43 bd
       -0.031471245 0.15498178 -0.09506795 -0.047708552
000370 47 05 64 bc bd b0 88 bd c1 1f 33 bd 8a 37 27 3e
       -0.013917274 -0.06674335 -0.043731455 0.1632978
000380 d2 05 94 bd bc c6 46 3d 83 ab 46 bd dc 7f ee 3d
       -0.07227673 0.04852937 -0.04850341 0.11645481
000390 fe 4f c0 bd ae 95 60 3d 75 4b eb bd a1 23 57 bd
       -0.09390257 0.054830246 -0.11489002 -0.052524213
0003a0 57 bb 51 3c 20 0c 9c bd fe 37 cf 3d 5b c0 f1 bc
       0.012801013 -0.076195 0.101181015 -0.029510668
0003b0 68 51 0f bd cb 10 ce bd 44 86 e5 bd 63 84 1d bd
       -0.034989744 -0.10061797 -0.1120725 -0.038456332
0003c0 3e 10 00 bd c5 55 dc 3d c3 7d 1e 3d f6 c2 1a 3e
       -0.03126549 0.10758547 0.038694154 0.15113434
0003d0 35 27 1d be c1 b6 d7 bc 8b 66 10 be 07 19 bd bd
       -0.15346988 -0.026332261 -0.14101617 -0.09233289
0003e0 d5 96 82 3d b4 96 cb 3c 44 e5 04 3d 57 f0 41 3c
       0.06376425 0.024852134 0.032445207 0.011837087
0003f0 1d cb 24 3d 9b 01 ff bc 35 b1 fc bd 51 7b 49 be
       0.040232766 -0.031128695 -0.12338487 -0.19675948

lstm.bias_ih_l1 f4 [256]
000000 9c e4 ca 3c 52 92 30 3d df f5 c4 3c f9 fd 15 bc
       0.024767213 0.043108292 0.024043022 -0.00915479
000010 5b 72 84 bd e6 64 02 3e 4b 88 8a 3d b2 e3 a8 3c
       -0.06467124 0.12733802 0.06764277 0.020616386
000020 0b ce 3b 3c 62 55 80 bd ae 55 99 3d b4 7e c4 3d
       0.011462699 -0.062662855 0.07487045 0.09594479
000030 69 f1 f8 3d ce 63 dd bb 53 39 1b bc d3 8d 1b bd
       0.1215542 -0.0067562824 -0.009474116 -0.03797705
000040 6f 5a 07 3e 3f df e7 bd b8 b9 a7 3d d0 64 35 bd
       0.13218091 -0.11321878 0.0818972 -0.044285595
000050 4d 27 63 bb 20 85 a2 3d f8 89 97 3c 7f 9d 04 3e
       -0.0034660876 0.07935548 0.018498406 0.12950705
000060 26 6e dc bd 08 e0 e3 ba 9a 3e 59 3d f1 66 31 3d
       -0.10763197 -0.0017385492 0.053038217 0.043311063
000070 98 4b b1 3c eb b3 ed bd f3 26 6b bd ae 70 42 3d
       0.021642491 -0.11606582 -0.05741019 0.04747074
000080 0f 6d c3 3d 03 8a 8a bd 28 07 cb 3d a3 9f b9 3d
       0.09542286 -0.06764605 0.09913474 0.090636514
000090 81 f9 7d bb 7c e5 b3 3d cc 07 a5 3d 50 70 b7 bc
       -0.0038753452 0.08784005 0.08058128 -0.022392422
0000a0 9b 8c 5a bd 4f 14 9c 3d 29 cf c9 bd 41 98 ce 3c
       -0.053356748 0.07621061 -0.09853966 0.025219085
0000b0 de 06 7c bd 99 85 4c 3c 36 49 c7 3d 00 04 4c 3d
       -0.061529987 0.012483024 0.09730761 0.049808502
0000c0 c3 93 09 3e 1f 26 fc 3d 1b 30 58 bd ab 0d f7 3d
       0.13435273 0.123119585 -0.052780252 0.12063154
0000d0 40 d3 ca bd cb dd 6e 3c 26 33 c1 3b 00 c5 7b 3c
       -0.09903574 0.014579247 0.00589599 0.015366793
0000e0 12 2e 0e 3d 2c 04 0d 3e 8f 22 1d 3e 9a 55 af bd
       0.034711905 0.13771123 0.15345214 -0.08561249
0000f0 03 dd 59 bc cd 32 bf bd ec 80 3f bd e3 92 15 3e
       -0.013297322 -0.09335861 -0.04675381 0.14606814
000100 98 d8 43 bb c1 fa 08 bd 26 34 25 bc 5d f3 52 bd
       -0.0029883739 -0.033442263 -0.010083234 -0.05150162
000110 a1 94 f8 bc 17 0c c6 bd 27 09 c3 3d e2 c6 f7 bd
       -0.03034431 -0.09670275 0.0952323 -0.12098481
000120 c5 d9 1b 3d 34 d6 cd bd 7b 99 aa 3c 89 09 95 3d
       0.038049478 -0.10050622 0.020825138 0.07277209
000130 b3 0b 67 bd 28 6a 0c 3d c3 b1 3d bd c7 dc a0 bd
       -0.05640764 0.034280926 -0.046312105 -0.0785461
000140 4b 30 ef 3d db 15 a5 bd e0 55 b4 bd fe bb 65 bd
       0.11679133 -0.08060809 -0.08805442 -0.056087486
000150 29 5f cf bd 5a 41 70 bc b8 68 14 3e 6e 16 bf bd
       -0.10125572 -0.0146640185 0.14493072 -0.0933045
000160 28 55 7d bc 26 05 0d 3d 09 d2 ba bd 5a f7 fb 3b
       -0.015462197 0.034428738 -0.09122092 0.0076893987
000170 63 6b ec 3d c9 09 93 3c 87 f7 61 bc a8 32 e6 bc
       0.1154392 0.017949002 -0.013791925 -0.028100327
000180 7a 43 7a bd fe 0f 95 3d 58 12 f6 bb 91 38 75 3c
       -0.061099507 0.07278441 -0.007509511 0.0149671
000190 fe bb 6e 3d 37 a3 cf 3d 00 44 c1 3d de 47 e5 bc
       0.058284752 0.10138553 0.09436798 -0.02798837
0001a0 1b 06 e6 3c fe 92 9a bd 07 67 ae bd 91 c7 c7 3d
       0.028079083 -0.07547568 -0.08515745 0.09754861
0001b0 2f 72 54 bd 1a a3 d8 3d d9 74 ff 3d 09 dd c7 3c
       -0.051866706 0.10577984 0.12473459 0.02439739
0001c0 8d b3 e4 3b c9 93 dd bd 22 7e c9 bd be 0f ad 3d
       0.006979412 -0.108192034 -0.09838511 0.08450268
0001d0 60 84 dc bc 28 52 0b bd 2c d7 9e 39 df c5 75 bd
       -0.02691859 -0.034013897 0.00030296424 -0.060003158
0001e0 f0 ce 55 bb 62 2e 61 3d 0e 8d 95 bd aa 9a d5 bd
       -0.0032624565 0.054975875 -0.07302295 -0.104298905
0001f0 fd b9 e5 3d b3 3d 9b bd 54 c1 4b bd 71 d3 89 3d
       0.11217115 -0.075801276 -0.04974492 0.067297824
000200 96 04 e1 bd e8 bf 77 bd 1a 2b 0a 3e 83 ec 4f bb
       -0.10987203 -0.06048575 0.13493004 -0.0031726665
000210 1a dc d7 bc ff 6a a1 3b 83 b8 df 3d 66 e8 8d bd
       -0.02635007 0.004926085 0.10923865 -0.06929092
000220 16 98 c9 3c fe 78 2f bd 49 5f 89 bc d4 d8 0d 3e
       0.024608653 -0.042839997 -0.016769068 0.13852245
000230 20 3c ce bd 2b c5 a4 3c fc ea 0d 3e 65 6c c4 3d
       -0.10070062 0.020113548 0.1385917 0.09590987
000240 9e 53 6a 3d c2 4f a6 bd f1 0f 49 bd c7 1f 81 3c
       0.05720865 -0.08120681 -0.04908747 0.015762223
000250 c8 69 4f 3d 35 2d ef 3c a1 d7 ee 3d 4d 77 c0 bb
       0.05063799 0.029196361 0.11662222 -0.0058735968
000260 38 89 ef 3c dc cc 0b bd 5d 2f 30 bd 27 d4 df 3c
       0.029240236 -0.034130916 -0.04301392 0.027322842
000270 dc 5c 09 3d c8 9b 67 3d a9 9c 12 be 4d 45 d0 bd
       0.033535823 0.05654505 -0.14317574 -0.10169468
000280 25 22 7d bc 2a 93 d6 bd f3 d3 6c bd 32 bc c2 bb
       -0.015450035 -0.10477288 -0.057819318 -0.005942845
000290 c4 43 fe b8 b6 54 0c be 52 c8 88 3d b4 6f 8f bc
       -0.00012124286 -0.1370419 0.06678833 -0.017509319
0002a0 08 4c bd bd f2 67 90 bd 37 db b3 3d a6 e0 0b 3e
       -0.092430174 -0.07051076 0.08782046 0.13659915
0002b0 35 ff 62 3c 44 3a 41 bb 61 e0 9f 3c 3a bb d8 3d
       0.013854791 -0.0029484192 0.019516172 0.10582586
0002c0 da e2 04 3d ba 89 52 3d e4 b1 8a bc 0f 2c b0 3d
       0.032442905 0.051400878 -0.016930528 0.086021535
0002d0 47 cc aa bc bf 07 6d bd 2f bc 92 bd 8b 5c 25 3d
       -0.02084936 -0.057868715 -0.071647994 0.04037146
0002e0 19 d3 b1 3c 40 c9 6f bc dc 5f 41 bd e7 3f e6 bd
       0.021707105 -0.014635384 -0.04721056 -0.11242657
0002f0 63 0f 3d 3d b9 64 c7 bd 6f 6a 3a 3c c4 16 bb bd
       0.046157252 -0.09736008 0.011377915 -0.091352016
000300 1c bf 74 3c c6 71 cd bd 4e 22 2d bd e8 2a c4 3c
       0.014938142 -0.10031466 -0.042269044 0.02394624
000310 5b 19 bf bc a1 74 de 3c cb f8 f8 bc cb 15 de bd
       -0.02332752 0.027155222 -0.030392071 -0.108440004
000320 ee 5d e0 bd 9b 60 10 3e ce 54 12 be d9 09 8b 3d
       -0.10955416 0.14099352 -0.14290163 0.06788988
000330 86 d2 86 3d 2e db 47 bd c7 10 cf bc 7b df 17 bd
       0.06583123 -0.04879301 -0.025276555 -0.037078362
000340 ee 93 bd bd 64 55 df 3c 40 b8 97 bd 3b fd 16 bd
       -0.09256731 0.027262397 -0.0740819 -0.036862593
000350 1b 73 dc bd c3 70 aa 3d ff 9f c1 bd ca ce 9d 3d
       -0.10764142 0.08322289 -0.09454345 0.077054575
000360 d4 37 ec bd 4a 38 19 3d 42 54 07 3e 31 8e 79 3d
       -0.11534086 0.037407197 0.13215736 0.06092662
000370 83 7f 5c bd e9 63 1a 3c 46 c4 af bd b9 44 36 3d
       -0.053832542 0.0094232345 -0.08582358 0.044499133
000380 e1 3f 1c 3d 6f 36 4f 3c 3b 11 2c 3d d4 77 ac bc
       0.038146857 0.012647255 0.04200862 -0.021053232
000390 71 4b b3 bd 09 c7 24 ba f5 e3 13 bd 18 f9 9a bd
       -0.08754624 -0.0006285762 -0.03610607 -0.07567042
0003a0 72 1c 8f 3d 66 ad c5 bd d3 58 ef 3d 16 1c 13 3e
       0.069878474 -0.09652214 0.11686864 0.14366183
0003b0 f6 96 bb bd e3 97 88 bd aa b0 04 bd 4b ea 93 bd
       -0.09159653 -0.06669595 -0.032395042 -0.07222422
0003c0 4e 9e f5 3d 86 d2 d1 3d 06 7f b7 3d a3 ed ae 3d
       0.11993085 0.10245232 0.08959775 0.08541419
0003d0 d2 b5 84 3d d8 e3 d0 bd e4 9f 03 3d 2d fd 30 bd
       0.06479992 -0.10199708 0.032134905 -0.043210197
0003e0 b6 0c eb 3d d4 77 07 3e b8 b0 5c 3d 1b 3a 7f 3d
       0.11477034 0.13229305 0.05387947 0.062311273
0003f0 b6 c0 0c 3e 11 0a bf bd da 95 83 bd ed 7b cd 3c
       0.13745388 -0.09328092 -0.06425066 0.025083506
