IEP1_forecasting/model/multi_output_lstm.pth (torch, 222468 bytes, 10 tensors)

lstm.weight_ih_l0 f4 [256, 14]
0.20868649 0.0908368 -0.005926537 -0.0459216 0.3445349 0.35610172 0.2152623 0.06738716
0.34707767 -0.025893647 -0.04850714 0.1855376 0.078029335 0.09984398 0.095831424 0.054910854
-0.07160462 0.12427567 0.083582275 0.0202667 0.009057645 -0.06908178 -0.020584682 0.062054038
-0.012657343 0.013870164 0.11971114 0.003486632 0.097459644 -0.0467847 0.085781045 -0.085031144
0.00047045393 0.09801228 0.1352121 -0.025304204 -0.058448773 0.0070277066 0.08192074 0.128109
-0.04595499 0.10147687 -0.06779837 0.1011234 -0.0737947 0.046246227 -0.041356232 0.12650268
0.02946089 -0.032450076 0.027768899 -0.028503915 0.11255854 0.03435596 0.08075694 -0.09489769
0.0046228915 0.124053955 -0.02782501 -0.07394171 -0.0014106733 0.0050627147 0.12012646 0.015843792
0.009845442 -0.09591184 0.11520834 0.13488059 0.11874034 0.05349148 0.075462185 -0.05173326
0.035501048 -0.043058045 -0.042771276 -0.013546526 -0.0074787983 0.034512427 0.07724347 0.076135986
-0.0102409385 0.019688772 0.10636104 0.08573001 0.13501367 0.0057353782 0.053082936 0.16264802
-0.055837747 0.11358777 -0.0064278035 0.1478528 -0.025472417 0.018422198 0.074460395 0.031119918
0.10307526 -0.0013053499 0.0591281 -0.11265501 -0.018686332 0.018222736 0.03486747 -0.017484242
0.13136369 0.051701263 0.11268594 0.13774858 0.11565828 -0.08424906 -0.063250616 0.0025272192
0.15322341 -0.03742147 -0.010415249 0.08966768 0.11931301 0.12560552 0.10821182 -0.022641398
0.14555502 0.09752443 0.08393562 0.13472359 -0.030914327 -0.09786053 0.091997705 -0.016866952
-0.04750363 0.03750263 0.14085618 0.034407124 0.13447416 0.16452408 0.06266555 -0.016047183
0.0078019034 0.074249856 -0.08190173 0.11049937 -0.042213123 0.17951414 0.13231118 0.12329814
-0.053754553 0.012007131 -0.049681537 -0.043461874 -0.024109444 0.14848796 0.030633314 0.003555533
0.12935273 0.02225876 0.13544574 0.01785739 0.082854174 0.14290942 0.081015706 0.11033909
0.2276617 0.17882885 0.22737828 0.16876785 0.14844438 0.11666043 0.012699131 0.24227317
-0.00254237 -0.076960236 0.039560203 0.011455599 0.1189079 0.016903143 0.059820205 -0.10417271
-0.05730937 0.052304372 0.04579568 -0.043560017 0.08796261 0.004804607 0.028781021 0.08726865
0.17962518 0.10888719 0.11869106 0.05090598 -0.004160219 -0.0245514 0.18486694 0.12009636
0.04563274 0.101221725 0.13279092 0.038743988 0.033848707 0.07730246 0.07680221 0.059032314
-0.06481329 0.1324719 0.12443443 0.067504235 0.1199691 -0.015745753 0.1198345 -0.0006080755
0.10944106 0.046198864 -0.0052783852 0.05275623 -0.0006311631 -0.0968767 0.039537348 -0.03734433
0.0812286 0.13583128 0.055448137 0.0647279 0.054984733 0.06290893 -0.10011446 0.11737041
0.072389126 0.11538134 0.01656608 0.10520525 0.035878208 0.034023773 -0.051999915 0.07256984
0.005022255 -0.015910953 0.016866792 0.16155073 0.017841365 -0.0120814 0.15656438 0.12996744
-0.048666544 -0.03446757 0.027620116 -0.064510785 0.0306037 -0.017092386 0.03832327 0.005953119
0.13702995 0.04756869 0.035927165 0.013151371 -0.13017221 0.091242805 0.027441926 -0.033188444
00000000: e9b1 553e a508 ba3d 6533 c2bb 4a18 3cbd
00000010: e166 b03e f752 b63e b86d 5c3e 4802 8a3d
00000020: 2ab4 b13e ea1e d4bc 6caf 46bd 92fd 3d3e
00000030: d8cd 9f3d 007b cc3d 4443 c43d 34ea 603d
00000040: 71a5 92bd 3e84 fe3d 2f2d ab3d 5a06 a63c
00000050: 8466 143c c07a 8dbd 35a1 a8bc 602c 7e3d
00000060: bf60 4fbc af3f 633c 1d2b f53d fa7f 643b
00000070: ec98 c73d 50a1 3fbd f9ad af3d cf24 aebd
00000080: 42a7 f639 aaba c83d 0a75 0a3e c34a cfbc
00000090: fb67 6fbd ad48 e63b 10c6 a73d 012f 033e
000000a0: 4d3b 3cbd 1bd3 cf3d dfd9 8abd c919 cf3d
000000b0: ad21 97bd af6c 3d3d 2765 29bd eb89 013e
000000c0: f757 f13c 5fea 04bd 9a7b e33c 0b81 e9bc
000000d0: 1885 e63d d6b8 0c3d e563 a53d b859 c2bd
000000e0: a07b 973b 0010 fe3d 46f1 e3bc c06e 97bd
000000f0: 57e6 b8ba 21e5 a53b dd04 f63d d7ca 813c
00000100: c74e 213c 6d6d c4bd 5af2 eb3d 231e 0a3e
00000110: 232e f33d e219 5b3d eb8b 9a3d 41e6 53bd
00000120: 8c69 113d a25d 30bd ef30 2fbd 40f2 5dbc
00000130: b510 f5bb e75c 0d3d d331 9e3d 2fed 9b3d
00000140: 9cc9 27bc 594a a13c d1d3 d93d 3793 af3d
00000150: 0641 0a3e d7ef bb3b 7e6d 593d 348d 263e
00000160: 1fb6 64bd b4a0 e83d 53a0 d2bb b966 173e
00000170: 88ab d0bc 26ea 963c b17e 983d 33ef fe3c
00000180: 1f19 d33d 4618 abba 4e30 723d abb7 e6bd
00000190: 1414 99bc d947 953c 31d1 0e3d 1d3b 8fbc
000001a0: 3484 063e b4c4 533d e3c7 e63d f70d 0d3e
000001b0: 40de ec3d c58a acbd 8a89 81bd b49f 253b
000001c0: 99e6 1c3e 4147 19bd b8a4 2abc b0a3 b73d
000001d0: 615a f43d bc9e 003e 299e dd3d 747a b9bc
000001e0: 600c 153e e3ba c73d 70e6 ab3d fbf4 093e
000001f0: 0b40 fdbc 1a6b c8bd 4b69 bc3d 902c 8abc
00000200: 2b93 42bd 5c9c 193d 9a3c 103e 7cee 0c3d
00000210: 98b3 093e 0079 283e cc56 803d 6275 83bc
00000220: 1ca7 ff3b 4f10 983d 18bc a7bd 7e4d e23d
00000230: abe7 2cbd 8ed2 373e 957c 073e bc83 fc3d
00000240: bc2d 5cbd 8fb9 443c de7e 4bbd 1405 32bd
00000250: 2b81 c5bc 3a0d 183e b7f2 fa3c f203 693b
00000260: 0b75 043e 0158 b63c 4ab2 0a3e a949 923c
00000270: 73af a93d d956 123e 90eb a53d 76f9 e13d
00000280: 2620 693e e91e 373e dad5 683e 7bd1 2c3e
00000290: ce01 183e aaeb ee3d 0410 503c 7516 783e
000002a0: e49d 26bb 549d 9dbd e109 223d 44b0 3b3c
000002b0: fc85 f33d 7678 8a3c 0806 753d 8058 d5bd
000002c0: 3bbd 6abd 1c3d 563d 4094 3b3d fd6b 32bd
000002d0: be25 b43d f76f 9d3b 2dc6 eb3c e8b9 b23d
000002e0: aaef 373e 3f00 df3d 4c14 f33d ca82 503d
000002f0: 7252 88bb 0520 c9bc c24d 3d3e 15f5 f53d
00000300: 65e9 3a3d 564d cf3d 58fa 073e 04b2 1e3d
00000310: f1a4 0a3d c150 9e3d 7a4a 9d3d decb 713d
00000320: d5bc 84bd b7a6 073e 7ad7 fe3d a93f 8a3d
00000330: 5cb2 f53d 3dfd 80bc ca6b f53d 4267 1fba
00000340: a222 e03d 053b 3d3d 4ef6 acbb eb16 583d
00000350: a374 25ba 4b67 c6bd eaf1 213d 5ef6 18bd
00000360: 2e5b a63d 5b17 0b3e 961d 633d 1090 843d
00000370: ac37 613d 66d6 803d cf08 cdbd e65f f03d
00000380: c040 943d 0d4d ec3d 96b5 873c da75 d73d
00000390: 07f5 123d 835c 0b3d ddfd 54bd 7f9f 943d
000003a0: ba91 a43b b057 82bc 3a2c 8a3c 8e6d 253e
000003b0: 0e28 923c 10f1 45bc 6a52 203e 2f16 053e
000003c0: 9256 47bd de2d 0dbd 9543 e23c 3b1e 84bd
000003d0: 9cb4 fa3c 5505 8cbc dcf8 1c3d 6212 c33b
000003e0: 9451 0c3e 63d7 423d 5d28 133d d978 573c
000003f0: dd4b 05be 82dd ba3d e4cd e03c 9bf0 07bd

lstm.weight_hh_l0 f4 [256, 64]
0.05040715 -0.041757658 0.16979033 -0.14413561 -0.013066532 -0.054902703 0.37826926 0.050851315
-0.38536847 0.015525098 -0.063438624 0.16673857 -0.32600197 -0.09489607 0.05102978 0.12955615
-0.046962194 -0.106501795 0.35914078 0.13103183 -0.051734578 0.0042241854 -0.087356776 -0.0051911892
-0.14968547 0.19170946 0.120462015 -0.272391 0.044424888 -0.018937599 0.14836837 -0.1335384
-0.11566366 0.09400481 0.06458116 0.10704633 0.07394801 -0.044472907 0.0524683 0.0284433
0.1538575 -0.105166376 0.10154241 -0.06859645 0.23176594 -0.075746745 0.1208409 -0.41162062
0.055408683 -0.05515921 -0.22733542 0.24157202 0.18656272 0.31831107 0.008098156 0.03963756
0.046971593 0.01758649 0.120249555 0.00044147376 -0.11965891 -0.23009863 0.09901324 -0.0041896095
0.13883924 -0.04864272 0.051026188 -0.0534074 0.13444978 -0.04094912 -0.050877787 0.039369397
-0.11378541 0.05524518 -0.002384501 -0.09430722 0.055070113 0.027976412 -0.008002127 -0.023778053
-0.16685456 -0.045022655 0.15754437 -0.110380605 -0.029609632 0.08810836 0.06709775 0.0048280405
-0.02973481 -0.043459 0.015552632 -0.052191164 0.13130528 -0.089351796 0.06980688 0.090509325
0.05870489 0.03061673 0.05316175 -0.004164016 0.07697135 0.008797543 -0.021649672 0.105501704
-0.022283707 -0.024422294 0.038035054 -0.12913226 -0.054923654 0.11675134 -0.09914143 -0.047076993
0.10380406 0.061974443 0.022839695 -0.041682694 -0.11639328 0.05988903 0.092472106 0.037902206
0.055078816 0.09066987 -0.07712245 0.06070714 0.081381135 -0.08891827 0.05291038 0.06354189
0.026812362 0.089449964 -0.10312658 0.04084941 0.13440502 -0.016601486 -0.12066613 0.060812823
-0.041885275 0.014863616 -0.08132085 -0.0083364565 -0.055407144 0.07292995 -0.08547668 0.015303068
-0.049519714 -0.096772045 -0.08029288 -0.037359398 -0.046981663 0.03732391 -0.019871084 0.07393737
-0.15941457 0.0903743 -0.038574647 0.08247932 -0.10270117 0.024075381 -0.059922114 -0.0732448
-0.006079784 0.033901054 0.051468674 0.066786505 -0.032255672 0.035618868 0.12327754 0.08046811
-0.027836332 0.09148282 0.007773786 0.057744924 0.080175236 0.0039473497 -0.08105448 -0.14865851
0.03601875 -0.11111952 0.0863441 -0.07466297 -0.14322953 -0.021492662 -0.031853247 0.014718612
-0.03447959 -0.080757685 0.018016402 0.11307938 0.036009755 0.12806797 0.06865536 -0.02656044
0.05887279 0.07074181 0.008589171 -0.09399705 0.08596699 -0.0045443615 0.02049709 0.07364996
-0.042700715 0.13539082 -0.057176784 0.17611004 0.034793958 0.04055108 -0.009257318 -0.094416134
0.09573983 0.091046065 -0.02436512 0.114215486 -0.090925775 0.05951645 -0.012364522 0.07948975
-0.2050465 -0.08982997 -0.10457525 0.008399472 -0.07206119 0.08472177 0.08968421 -0.049934607
0.055674262 -0.015280383 0.024121473 -0.089530535 -0.020900201 0.07695514 -0.09483359 0.05510855
0.2143454 -0.08095882 0.052518435 0.1116349 -0.023430537 0.11774566 0.009035116 -0.17620061
-0.089723006 -0.026078679 -0.02017194 0.15427385 -0.103946134 0.06945423 0.11085101 -0.031790696
0.06314895 -0.064281166 0.028416324 -0.121439144 0.09050425 -0.00018643249 -0.079373464 -0.010125516
00000000: ba77 4e3d 140a 2bbd 84dd 2d3e 4998 13be
00000010: 0215 56bc a8e1 60bd 82ac c13e 7849 503d
00000020: 044f c5be fb5c 7e3c 1cec 81bd 84bd 2a3e
00000030: bbe9 a6be df58 c2bd 9a04 513d 5eaa 043e
00000040: 6e5b 40bd 9d1d dabd 4de1 b73e 352d 063e
00000050: a3e7 53bd 096b 8a3b 1ce8 b2bd da1a aabb
00000060: 2647 19be 7c4f 443e cab4 f63d d576 8bbe
00000070: dff6 353d 0623 9bbc e1ed 173e 4abe 08be
00000080: 12e1 ecbd 9885 c03d 2143 843d 1b3b db3d
00000090: 0e72 973d 3929 36bd 00e9 563d ec01 e93c
000000a0: d28c 1d3e 7861 d7bd 78f5 cf3d 4c7c 8cbd
000000b0: 0d54 6d3e 1c21 9bbd 6f7b f73d f0bf d2be
000000c0: 37f4 623d a0ee 61bd 9eca 68be a85e 773e
000000d0: 4c0a 3f3e abf9 a23e 21ae 043c fe5a 223d
000000e0: 4965 403d 8b11 903c 6645 f63d 9b75 e739
000000f0: bb0f f5bd fa9e 6bbe 74c7 ca3d fe48 89bb
00000100: e02b 0e3e 973d 47bd d600 513d b8c1 5abd
00000110: 34ad 093e 44ba 27bd 3a65 50bd ce41 213d
00000120: 5308 e9bd c548 623d 4a45 1cbb 2524 c1bd
00000130: 3391 613d ca2e e53c 5a1b 03bc 31ca c2bc
00000140: ecdb 2abe ad69 38bd 5053 213e 3a0f e2bd
00000150: e68f f2bc 2872 b43d 8c6a 893d 8a34 9e3b
00000160: 6b96 f3bc 1002 32bd 77d0 7e3c 67c6 55bd
00000170: e474 063e 13fe b6bd e9f6 8e3d f45c b93d
00000180: 8a74 703d f0cf fa3c 23c0 593d 4c72 88bb
00000190: 28a3 9d3d 9223 103c a75a b1bc 4711 d83d
000001a0: 528c b6bc 4311 c8bc a5ca 1b3d 3f3b 04be
000001b0: a0f7 60bd 541b ef3d a90a cbbd ced3 40bd
000001c0: 3997 d43d ead8 7d3d 501a bb3c 79bb 2abd
000001d0: 9a5f eebd 334e 753d 0462 bd3d 583f 1b3d
000001e0: 539a 613d 20b1 b93d 60f2 9dbd 0da8 783d
000001f0: 27ab a63d c81a b6bd 8eb8 583d 4022 823d
00000200: 99a5 db3c 8b31 b73d 0734 d3bd b651 273d
00000210: 78a1 093e d7ff 87bc ce1f f7bd de16 793d
00000220: e58f 2bbd 8686 733c 8c8b a6bd a295 08bc
00000230: 9af2 62bd 4c5c 953d 660e afbd b8b9 7a3c
00000240: 2fd5 4abd 6c30 c6bd 9870 a4bd 2b06 19bd
00000250: d86f 40bd f5e0 183d afc8 a2bc 7a6c 973d
00000260: 933d 23be 2916 b93d 7300 1ebd ebea a83d
00000270: fe54 d2bd bc39 c53c e470 75bd 5f01 96bd
00000280: ed38 c7bb d5db 0a3d d1d0 523d 5dc7 883d
00000290: 861e 04bd 17e5 113d ef78 fc3d 77cc a43d
000002a0: 0509 e4bc 585b bb3d 3ebb fe3b f185 6c3d
000002b0: ea32 a43d c558 813b e4ff a5bd f039 18be
000002c0: 6688 133d a292 e3bd 2dd5 b03d e6e8 98bd
000002d0: c3aa 12be 6111 b0bc 8d78 02bd 5526 713c
000002e0: 783a 0dbd 4964 a5bd 2297 933c 2996 e73d
000002f0: f77e 133d 4024 033e 2e9b 8c3d 4895 d9bc
00000300: 9824 713d 15e1 903d 98b9 0c3c 8681 c0bd
00000310: 760f b03d dee8 94bb 83e9 a73c cad5 963d
00000320: f2e6 2ebd e4a3 0a3e 3432 6abd 3156 343e
00000330: 1c84 0e3d e418 263d 02ac 17bc 3f5d c1bd
00000340: 3e13 c43d 5c76 ba3d 5c99 c7bc cfe9 e93d
00000350: 4b37 babd 85c7 733d 9094 4abc 86cb a23d
00000360: b6f7 51be c6f8 b7bd 8c2b d6bd f09d 093c
00000370: d194 93bd 9b82 ad3d 5bac b73d 3b88 4cbd
00000380: b20a 643d 925a 7abc 659a c53c c95b b7bd
00000390: e636 abbc a89a 9d3d 1d38 c2bd 81b9 613d
000003a0: 5c7d 5b3e bdcd a5bd 921d 573d d7a0 e43d
000003b0: 66f1 bfbc a324 f13d 0608 143c ef6d 34be
000003c0: b2c0 b7bd f4a2 d5bc a03f a5bc f7f9 1d3e
000003d0: b6e1 d4bd 053e 8e3d db05 e33d f636 02bd
000003e0: 3d54 813d d8a5 83bd 5ac9 e83c 16b5 f8bd
000003f0: 4b5a b93d 177d 43b9 8e8e a2bd 7ee5 25bc

lstm.bias_ih_l0 f4 [256]
0.18946765 0.04271064 0.088978924 0.10800182 0.076476075 0.033133186 0.11633037 0.044929013
0.053447325 0.016554981 0.05426362 0.0033017052 0.06006989 0.047070287 0.03660128 0.03757168
0.14777112 -0.010826618 0.10370593 0.0889537 0.08628676 0.13163088 0.11791526 0.08774646
-0.006697341 -0.026781239 -0.05097374 0.109667026 0.17787589 0.05233215 0.06651422 0.13151062
-0.044818953 0.14083968 0.011164572 0.11268013 -0.054421663 0.063242786 -0.012060858 0.12600653
0.074268945 -0.09400791 -0.09742872 -0.017896364 -0.06522684 0.06556403 -0.08826106 -0.0075798864
-0.0259501 0.15282658 0.15200473 0.14854585 -0.037915707 -0.06368508 -0.09135075 0.03258351
-0.00952712 -0.063372254 -0.008265607 0.020726416 -0.05648085 0.1368836 0.11581096 -0.06459915
-0.037455235 0.05440534 -0.03762493 -0.032656644 0.06639046 0.119481444 -0.06401744 -0.014873853
0.106692135 -0.024648743 0.050274633 0.106896594 0.13418035 -0.05575756 0.0840799 -0.04534163
-0.0074290233 0.0951937 0.08324943 0.09077389 -0.02959108 -0.05853082 -0.05242254 0.1369016
0.08187078 0.16432452 -0.044472452 -0.030750457 0.09405243 -0.074751385 0.047046084 0.0017954569
0.12732619 0.06544721 0.09928567 0.0698616 -0.016367933 0.08791264 0.078476235 0.11938785
0.13509841 -0.087570846 0.016932055 -0.09980827 -0.030443462 -0.0009458972 0.029272277 0.13313726
0.09347818 0.06334514 0.113005705 -0.10333454 -0.046275124 0.075662255 0.047701728 0.05419205
-0.022541061 0.054404408 -0.02324814 -0.011145425 -0.10536701 0.02326559 0.13139984 0.06173715
0.04861416 0.002250161 0.044287033 0.08009045 -0.08218661 -0.11493724 0.035291947 -0.03447948
0.053160515 -0.05262782 0.0385226 -0.09748281 -0.02928359 0.08352635 -0.0073998366 0.040270817
0.09747303 -0.06899478 0.07041414 0.047848523 0.052340683 0.02273272 -0.041416153 -0.1448234
-0.014331722 0.14491092 0.09730276 -0.047923803 -0.08746161 0.1337417 -0.11047404 -0.07053998
-0.11136878 -0.01696633 -0.1015494 -0.019921618 0.06700196 -0.054898746 0.11286008 -0.031532336
-0.013619266 0.060260125 0.020342791 -0.007905873 0.0475253 0.04847897 0.033672098 -0.090229295
0.08049673 -0.10169153 -0.04555335 0.12201527 0.03972836 0.01275085 0.06649851 -0.086176716
-0.13669896 -0.0005166077 0.006439747 -0.09564171 0.10155618 -0.037597828 -0.02847843 -0.14024402
-0.007949338 -0.005286767 0.13760422 -0.07457105 -0.03374952 -0.053488154 0.16786504 -0.037115354
0.09329181 0.15392327 -0.025365325 0.1405087 -0.07003351 0.13302724 0.10577283 0.09572468
0.050031364 0.11078868 0.09403054 -0.024049653 -0.09807897 0.086110294 -0.0163943 -0.026575925
-0.017893359 0.050016146 -0.06525725 -0.023417406 0.118319534 -0.06626384 -0.012599074 0.08023429
0.033395473 0.019910753 -0.10959275 0.100235194 0.007674491 0.09314504 0.1264271 0.022008538
0.14252295 0.07617354 0.054123584 -0.042422127 0.10420784 0.15416388 0.058276903 0.11220444
-0.046686318 0.16067846 0.12804146 0.09747101 0.062956885 -0.02400208 0.092879064 0.12114582
0.08432656 -0.018819151 0.0314095 0.13340528 0.11140086 -0.016883427 0.13609262 -0.025072344
00000000: cf03 423e 5af1 2e3d 953a b63d 0f30 dd3d
00000010: 7d9f 9c3d aab6 073d 9e3e ee3d 7c07 383d
00000020: 95eb 5a3d 509e 873c 8843 5e3d 6c61 583b
00000030: d80b 763d c6cc 403d 39eb 153d c3e4 193d
00000040: 5051 173e 2162 31bc c663 d43d 5c2d b63d
00000050: 1db7 b03d 3fca 063e 8e7d f13d 6bb4 b33d
00000060: 5e75 dbbb 5464 dbbc d7c9 50bd 1b99 e03d
00000070: 1925 363e 3d5a 563d 9b38 883d b8aa 063e
00000080: 1494 37bd 4738 103e 9ceb 363c d7c4 e63d
00000090: 40e9 5ebd 6f85 813d e89a 45bc db07 013e
000000a0: 511a 983d 3887 c0bd b588 c7bd 659b 92bc
000000b0: a695 85bd 6f46 863d 37c2 b4bd b260 f8bb
000000c0: 4e95 d4bc 927e 1c3e 21a7 1b3e 671c 183e
000000d0: 804d 1bbd 536d 82bd 1a16 bbbd 4976 053d
000000e0: a317 1cbc 50c9 81bd 786c 07bc 72ca a93c
000000f0: 7758 67bd 372b 0c3e 4c2e ed3d 8f4c 84bd
00000100: a96a 19bd 22d8 5e3d 991c 1abd f9c2 05bd
00000110: b9f7 873d b0b2 f43d 931b 83bd 76b1 73bc
00000120: 6881 da3d 29ec c9bc c6ec 4d3d 9aec da3d
00000130: 9366 093e 0a62 64bd 1532 ac3d 25b8 39bd
00000140: 2a6f f3bb eaf4 c23d ad7e aa3d a9e7 b93d
00000150: fe68 f2bc 03be 6fbd 04b9 56bd ef2f 0c3e
00000160: deab a73d b044 283e bf28 36bd 62e8 fbbc
00000170: 8f9e c03d 4117 99bd 65b3 403d 8955 eb3a
00000180: cc61 023e 3009 863d 4956 cb3d 9913 8f3d
00000190: 0b16 86bc 8b0b b43d 26b8 a03d 9e81 f43d
000001a0: 3d57 0a3e 5858 b3bd 18b5 8a3c 4768 ccbd
000001b0: 9164 f9bc 16f6 77ba 6acc ef3c 2255 083e
000001c0: 7d71 bf3d 19bb 813d 896f e73d 0fa1 d3bd
000001d0: fc8a 3dbd d0f4 9a3d e362 433d 7cf8 5d3d
000001e0: 08a8 b8bc 28d7 5e3d e272 bebc 4d9b 36bc
000001f0: a9ca d7bd 7b97 be3c ae8d 063e 18e0 7c3d
00000200: a41f 473d 7077 133b 5266 353d 7606 a43d
00000210: 7451 a8bd 3764 ebbd 4a8e 103d 5b3a 0dbd
00000220: d7be 593d 4590 57bd e0c9 1d3d 11a5 c7bd
00000230: 24e4 efbc dd0f ab3d 547a f2bb 03f3 243d
00000240: f19f c73d 234d 8dbd 4a35 903d d0fc 433d
00000250: 2f63 563d f839 ba3c fca3 29bd 964c 14be
00000260: 99cf 6abc 8763 143e ab46 c73d c04b 44bd
00000270: 131f b3bd 96f3 083e 3740 e2bd 4477 90bd
00000280: 5115 e4bd f9fc 8abc 22f9 cfbd a932 a3bc
00000290: 5338 893d 82dd 60bd 3023 e73d 0d28 01bd
000002a0: 5823 5fbc 52d3 763d eda5 a63c a287 01bc
000002b0: e4a9 423d e291 463d c1eb 093d 23ca b8bd
000002c0: 78db a43d a643 d0bd 2696 3abd 24e3 f93d
000002d0: 34ba 223d f1e8 503c 5f30 883d 6b7d b0bd
000002e0: d0fa 0bbe f56c 07ba 8304 d33b cddf c3bd
000002f0: b0fc cf3d 2e00 1abd 994b e9bc 219c 0fbe
00000300: f13d 02bc 9e3c adbb 1fe8 0c3e b5b8 98bd
00000310: f03c 0abd 6516 5bbd d0e4 2b3e 4506 18bd
00000320: c70f bf3d 109e 1d3e f1ca cfbc 83e1 0f3e
00000330: bb6d 8fbd 4b38 083e 6d9f d83d 4d0b c43d
00000340: b0ed 4c3d 2de5 e23d 1593 c03d c703 c5bc
00000350: a1dd c8bd 985a b03d 574d 86bc c1b5 d9bc
00000360: 1895 92bc bbdd 4c3d 98a5 85bd dcd5 bfbc
00000370: 8351 f23d 56b5 87bd 596c 4ebc e051 a43d
00000380: b1c9 083d e01b a33c 2a72 e0bd 1c48 cd3d
00000390: 4c7a fb3b d4c2 be3d 1b76 013e 404b b43c
000003a0: 89f1 113e df00 9c3d b1b0 5d3d d3c2 2dbd
000003b0: ec6a d53d 23dd 1d3e c3b3 6e3d 71cb e53d
000003c0: 273a 3fbd e588 243e 4d1d 033e e29e c73d
000003d0: 8aef 803d 03a0 c4bc 6137 be3d 4d1b f83d
000003e0: 67b3 ac3d 9f2a 9abc 3fa7 003d 659b 083e
000003f0: 2226 e43d 1d4f 8abc dd5b 0b3e 8464 cdbc

lstm.bias_hh_l0 f4 [256]
0.22503327 -0.07463451 -0.08361902 -0.09783044 0.0783515 0.011877778 0.10270339 -0.05398272
0.035086144 -0.060569093 0.05446513 0.07407309 0.0812657 0.06907956 -0.018293424 0.05550753
-0.06960416 0.13832 0.11573106 -0.026738888 0.13018711 0.027621685 -0.106191695 0.10160077
0.0069597997 0.09032763 0.066758655 0.05713101 -0.02066926 -0.08989615 0.011766057 0.11968589
0.019492546 0.0052548847 -0.09405415 0.05802801 -0.05356155 -0.0104047535 0.07217696 -0.05407614
-0.035566848 0.07317127 -0.07263685 0.03782256 0.096738905 -0.09099936 -0.064564876 0.10764376
0.044756837 0.18608351 0.052735403 0.014016336 0.0672734 0.09738997 -0.030208664 -0.049438134
0.065816276 0.015558361 -0.074225344 0.019262154 0.13060649 0.08292082 0.06025328 0.045497507
0.041597042 0.06791149 0.041556027 0.13111311 0.06982533 -0.10674156 0.15643455 -0.058609594
0.03396455 -0.0075441264 -0.07388178 0.02790941 -0.01967859 0.087074995 0.11464416 0.057939623
-0.014733518 0.051686313 0.1429789 0.096368335 -0.07093171 0.013843118 -0.014359845 -0.046514418
0.073360726 0.16824505 -0.067487985 -0.035215657 0.009845668 0.05834731 -0.030408356 0.09575032
-0.06486386 0.0808388 0.114147745 0.020010196 -0.096791066 0.08794492 0.09543407 -0.038243163
-0.0011224343 0.049841978 0.07501548 -0.031007858 0.08564081 0.123279154 -0.08296803 0.054642286
-0.123674735 -0.046220765 -0.024716644 0.1349646 -0.09569146 -0.05881079 -0.028034505 0.07799188
-0.03760845 0.10337713 -0.012872297 0.009969669 0.05556539 0.0026821496 0.07699266 0.14274105
-0.09812442 0.023871364 0.10638963 -0.025796678 -0.009310004 0.046219226 0.044966996 -0.12542047
-0.12233515 0.04510058 0.024855647 0.08396382 -0.071105994 -0.007642423 -0.041829456 0.13549244
0.049294297 -0.07311827 0.091944575 -0.051248133 -0.10408031 -0.0183732 -0.007960532 -0.02214807
-0.10969044 -0.031337332 -0.0038037817 -0.09979966 0.038097493 0.11159981 0.102434896 -0.12966464
-0.08966299 0.07669221 0.044292312 0.004758248 -0.008345359 0.09818577 -0.040862408 -0.026081242
0.093344904 -0.119440556 -0.038933903 -0.042429462 0.057215124 -0.02236916 0.08482594 -0.11466835
-0.09706868 -0.08258391 -0.060344018 0.025533732 0.019561158 0.10244724 0.113282345 0.103602715
-0.040089797 0.13298444 0.047332257 -0.09388303 -0.05713628 0.122034155 -0.0070492914 -0.031890344
0.029366292 0.045185443 -0.089613184 0.11830757 -0.037755087 -0.08911729 -0.059618954 -0.08058365
-0.020761156 0.15165195 -0.07771306 0.017488433 -0.02831126 -0.0010560738 0.043083314 -0.056411996
0.083503425 -0.08601027 -0.063682765 -0.029628504 0.029601566 -0.046111457 0.07982098 0.07959552
0.06885881 -0.027538009 -0.03388498 0.022510631 0.08960687 0.04247851 -0.022484817 0.09518117
-0.060350846 -0.06665022 -0.089590095 0.061247002 0.094809555 0.07875055 -0.069501966 -0.045092516
0.14401157 -0.038304515 0.13136671 -0.05418778 0.022517478 0.1043597 -0.10845435 0.044713587
0.06318164 0.084680185 -0.09072014 0.032079827 0.03237387 -0.08524297 0.061596792 0.13586059
0.07452472 -0.104460746 0.110177614 0.01236777 0.10581267 0.11160086 0.17816871 0.045431424
00000000: 1f6f 663e fad9 98bd 7340 abbd 535b c8bd
00000010: c076 a03d 039b 423c 2856 d23d fc1c 5dbd
00000020: 7db6 0f3d 4c17 78bd d416 5f3d a2b3 973d
00000030: a26e a63d 9679 8d3d 17dc 95bc dd5b 633d
00000040: a08c 8ebd c2a3 0d3e 6804 ed3d 830b dbbc
00000050: c54f 053e df46 e23c 087b d9bd 1114 d03d
00000060: 080f e43b b1fd b83d c3b8 883d 3502 6a3d
00000070: 9452 a9bc 791b b8bd 6cc6 403c e01d f53d
00000080: d5ae 9f3c 2b31 ac3b 769f c0bd c7ae 6d3d
00000090: 5b63 5bbd b378 2abc 84d1 933d f17e 5dbd
000000a0: 8bae 11bd d2da 953d a1c2 94bd d4eb 1a3d
000000b0: 0c1f c63d df5d babd 973a 84bd 5574 dc3d
000000c0: f252 373d ad8c 3e3e 1401 583d c6a4 653c
000000d0: a3c6 893d 6574 c73d 2978 f7bc a47f 4abd
000000e0: afca 863d 7fe8 7e3c 7503 98bd aacb 9d3c
000000f0: b5bd 053e 64d2 a93d 25cc 763d 985b 3a3d
00000100: a961 2a3d 2e15 8b3d a736 2a3d 8442 063e
00000110: 9500 8f3d 529b dabd 6130 203e 9d10 70bd
00000120: 691e 0b3d b834 f7bb 554f 97bd 46a2 e43c
00000130: ff34 a1bc 6054 b23d 8fca ea3d 1952 6d3d
00000140: da64 71bc 07b5 533d 1069 123e c35c c53d
00000150: a544 91bd 3fce 623c 8e45 6bbc e785 3ebd
00000160: 263e 963d 6e48 2c3e 2437 8abd 4b3e 10bd
00000170: ba4f 213c 97fd 6e3d f21a f9bc be18 c43d
00000180: 58d7 84bd d08e a53d 4bc6 e93d 6cec a33c
00000190: 653a c6bd 771c b43d f072 c33d dda4 1cbd
000001a0: a51e 93ba 1a27 4c3d b7a1 993d 3104 febc
000001b0: 7364 af3d c879 fc3d 24eb a9bd 97d0 5f3d
000001c0: 2e49 fdbd fc51 3dbd 8f7a cabc 2934 0a3e
000001d0: e2f9 c3bd 95e3 70bd 9ea8 e5bc 35ba 9f3d
000001e0: 510b 1abd 64b7 d33d 54e6 52bc d357 233c
000001f0: 8998 633d 01c7 2f3b 54ae 9d3d b62a 123e
00000200: 75f5 c8bd e18d c33c cee2 d93d 8e53 d3bc
00000210: fd88 18bc 5f50 3d3d 502f 383d 396e 00be
00000220: da8a fabd 63bb 383d 129e cb3c 39f5 ab3d
00000230: 05a0 91bd 4a6d fabb 5d55 2bbd 88be 0a3e
00000240: d1e8 493d 08bf 95bd 704d bc3d 90e9 51bd
00000250: 0f28 d5bd 6583 96bc e46c 02bc df6f b5bc
00000260: 62a5 e0bd 935b 00bd de48 79bb c463 ccbd
00000270: 1e0c 1c3d 718e e43d 63c9 d13d cfc6 04be
00000280: 3ba1 b7bd ce10 9d3d db6b 353d 14eb 9b3b
00000290: f9ba 08bc 9f15 c93d 575f 27bd 54a8 d5bc
000002a0: 9d2b bf3d 409d f4bd 2879 1fbd 84ca 2dbd
000002b0: 685a 6a3d 873f b7bc 39b9 ad3d 3dd7 eabd
000002c0: f2cb c6bd c121 a9bd 4a2b 77bd 1e2c d13c
000002d0: b93e a03c dccf d13d 9300 e83d a92d d43d
000002e0: 3335 24bd 132d 083e 78df 413d bf45 c0bd
000002f0: bb07 6abd 0bed f93d befd e6bb 739f 02bd
00000300: 9491 f03c 5f14 393d 1e87 b7bd 3d4b f23d
00000310: 14a5 1abd 2083 b6bd 0133 74bd 0a09 a5bd
00000320: 4d13 aabc a64a 1b3e 0628 9fbd e743 8f3c
00000330: 04ed e7bc f56b 8aba 2178 303d 4410 67bd
00000340: d803 ab3d 2726 b0bd 1c6c 82bd 7ab7 f2bc
00000350: fc7e f23c 5edf 3cbd 2f79 a33d fa02 a33d
00000360: d905 8d3d 6497 e1bc faca 0abd 3768 b83c
00000370: cf83 b73d f2fd 2d3d 1432 b8bc 58ee c23d
00000380: 7332 77bd e97f 88bd 037b b7bd 23de 7a3d
00000390: 832b c23d f847 a13d 0c57 8ebd eeb2 38bd
000003a0: c577 133e 32e5 1cbd ff84 063e 01f4 5dbd
000003b0: 9376 b83c 8aba d53d 501d debd 9825 373d
000003c0: 6065 813d ce6c ad3d 7bcb b9bd 2366 033d
000003d0: 779a 043d de93 aebd eb4c 7c3d 0a1f 0b3e
000003e0: 6ba0 983d 84ef d5bd cda4 e13d 30a2 4a3c
000003f0: 50b4 d83d fe8e e43d dc71 363e 4d16 3a3d

lstm.weight_ih_l1 f4 [256, 64]
-0.000735327 -0.016692972 -0.061918493 -0.014297337 -0.037189182 -0.13581951 -0.081684805 -0.07990473
0.06671951 0.018627698 -0.053059604 -0.031359475 -0.025729407 -0.09266013 -0.12510294 -0.08064662
-0.048136022 -0.013691684 0.052185982 0.11736758 -0.10835453 0.13495071 -0.10898637 -0.1180262
-0.09896221 -0.09661374 0.094315186 0.02115474 -0.062338106 -0.021391021 0.12403808 -0.06789011
-0.09879528 -0.0963174 -0.074635155 -0.11543205 0.024704143 0.07513092 -0.09167699 -0.089361355
0.059756037 0.036841914 -0.08911258 -0.011456588 0.08837889 0.07309354 0.017242406 0.0928057
0.045992803 0.02620788 -0.11990388 0.030841123 0.07132712 0.0013050471 -0.026466731 0.12639888
-0.114371955 0.012042705 -0.0558896 0.075346775 0.091371246 -0.010180301 0.09030279 0.006744396
0.12842144 -0.06563767 0.031867214 -0.14518954 -0.05602005 0.03147735 0.07259602 0.07423367
-0.08494445 0.008443243 -0.040844996 0.28129074 0.0035430668 0.058167446 -0.11025006 -0.04202491
0.03467632 -0.13553345 0.09274859 0.07359789 0.00930604 0.15788846 -0.016447807 -0.17853811
-0.06717837 0.22696346 0.08322024 0.013220544 -6.480295e-05 -0.014427324 -0.008054505 -0.056417808
-0.15966074 0.17745268 0.036106378 -0.010765534 0.11431257 -0.08582438 0.071179956 0.042928766
0.01650922 0.07689252 -0.01314692 -0.013347062 0.030425757 0.07359295 0.13596782 -0.1601515
0.045842744 -0.03765714 0.05585999 0.06322534 -0.062382888 -0.008371203 -0.024439177 -0.1164793
-0.013627516 0.035807326 -0.043863125 -0.1383029 -0.02586586 -0.12847845 0.038511917 -0.1660933
-0.059852306 0.04997124 -0.07924948 0.114826694 -0.049700465 0.011978624 0.033913437 -0.023608265
0.119353 -0.106824555 0.041826703 -0.12136345 -0.031710718 0.020562865 -0.016235877 -0.087766066
0.14372516 -0.13845813 0.09945999 0.09542365 -0.030099642 -0.069372505 -0.15229835 0.106930904
-0.08845892 -0.079869784 -0.053700205 0.085545935 -0.036248308 -0.051883753 -0.073943876 0.009665461
0.0058144247 0.031789545 -0.11083182 -0.01428773 0.083755426 -0.010767546 -0.01872155 -0.11522153
0.045251712 0.017841516 -0.11648017 -0.09223139 0.13369593 0.005094913 0.12139821 -0.047853082
-0.07579925 -0.109221116 -0.014850743 0.11493949 0.13262235 0.06264317 0.006714177 -0.008966047
-0.06281936 0.008082886 0.07615057 0.03290621 0.10625361 0.09587243 0.107174195 -0.053047802
0.19099051 0.102271356 0.02762849 0.047865972 0.005950655 -0.0869725 0.0031514908 -0.06947649
0.033951636 0.048780516 0.11997958 0.07160033 0.015914235 0.07264516 -0.062891014 -0.042715807
-0.013851948 -0.122741975 -0.038565587 0.044010624 -0.0870112 -0.080610536 0.11846116 0.011173898
-0.16631483 0.0750044 -0.03088843 0.049730137 0.10597131 -0.089225635 -0.052234627 -0.053170536
0.028760558 -0.08304309 0.0434324 0.046546903 -0.04995921 0.05510512 -0.01280938 -0.09107317
0.10809585 0.09780889 -0.039452158 -0.055801835 -0.058147795 -0.043174963 -0.010413735 0.11791027
0.03185629 -0.1154882 0.101846136 -0.081167005 -0.050319396 0.10787791 -0.08228367 -0.06873784
-0.086235 0.0011562889 0.073699966 0.111389905 0.09521299 -0.0078088297 -0.02174697 -0.06708192
00000000: f6c2 40ba b3bf 88bc 3f9e 7dbd 613f 6abc
00000010: af53 18bd 4514 0bbe 5d4a a7bd 17a5 a3bd
00000020: 3da4 883d 1d99 983c 0755 59bd cb72 00bd
00000030: 7ac6 d2bc 98c4 bdbd fc1a 00be 0e2a a5bd
00000040: 472a 45bd 1653 60bc f8c0 553d 6a5e f03d
00000050: fbe8 ddbd 8530 0a3e 3f34 dfbd b8b7 f1bd
00000060: b3ac cabd 6ddd c5bd 5228 c13d b54c ad3c
00000070: 3e56 7fbd 393c afbc ad07 fe3d f809 8bbd
00000080: 2e55 cabd 0f42 c5bd 51da 98bd a367 ecbd
00000090: 5860 ca3c 3dde 993d 25c1 bbbd 1603 b7bd
000000a0: bfc2 743d 8ce7 163d a880 b6bd 6ab4 3bbc
000000b0: feff b43d 11b2 953d f23f 8d3c ea10 be3d
000000c0: f362 3c3d e8b1 d63c 2a90 f5bd 86a6 fc3c
000000d0: f413 923d 1d0e ab3a c2d0 d8bc b56e 013e
000000e0: d83b eabd c44e 453c 7eec 64bd 694f 9a3d
000000f0: d920 bb3d 47cb 26bc abf0 b83d 1800 dd3b
00000100: e980 033e 0b6d 86bd 3287 023d 91ac 14be
00000110: 4875 65bd 65ee 003d 39ad 943d d307 983d
00000120: 5bf7 adbd 8755 0a3c 154d 27bd 5705 903e
00000130: cc32 683b fd40 6e3d c9ca e1bd 5022 2cbd
00000140: c208 0e3d 48c9 0abe f9f2 bd3d 7eba 963d
00000150: 5c78 183c 83ad 213e 8dbd 86bc b2d2 36be
00000160: d094 89bd 1c69 683e 606f aa3d fb9a 583c
00000170: d2e6 87b8 9560 6cbc 0bf7 03bc 5c16 67bd
00000180: 1b7e 23be 28b6 353e 48e4 133d ec61 30bc
00000190: b51c ea3d b1c4 afbd ccc6 913d 13d6 2f3d
000001a0: 583e 873c d379 9d3d 2e66 57bc a3ad 5abc
000001b0: 703f f93c e7b7 963d 263b 0b3e c1fe 23be
000001c0: 9ac5 3b3d 603e 1abd 72cd 643d 497c 813d
000001d0: 3385 7fbd 5f27 09bc ab34 c8bc b38c eebd
000001e0: f245 5fbc b4aa 123d d2a9 33bd 479f 0dbe
000001f0: a4e4 d3bc db8f 03be acbe 1d3d 5d14 2abe
00000200: b127 75bd a5ae 4c3d 8d4d a2bd 422a eb3d
00000210: b792 4bbd fe41 443c d1e8 0a3d 1f66 c1bc
00000220: 586f f43d d5c6 dabd 7a52 2b3d 678d f8bd
00000230: 19e3 01bd 7473 a83c 1a01 85bc b2be b3bd
00000240: b02c 133e f8c7 0dbe aeb1 cb3d 7a6d c33d
00000250: 8693 f6bc 2c13 8ebd 19f4 1bbe 97fe da3d
00000260: f329 b5bd c592 a3bd bff4 5bbd b532 af3d
00000270: 1b79 14bd 0f84 54bd e36f 97bd e25b 1e3c
00000280: ee86 be3b c135 023d cbfb e2bd 1517 6abc
00000290: f787 ab3d 5c6a 30bc f05d 99bc 44f9 ebbd
000002a0: dc59 393d 5f28 923c 288d eebd d0e3 bcbd
000002b0: 96e7 083e 3af3 a63b a09f f83d 9801 44bd
000002c0: a33c 9bbd 52af dfbd 8850 73bc 6565 eb3d
000002d0: 27ce 073e 104b 803d 9902 dc3b 54e6 12bc
000002e0: 70a7 80bd 156e 043c d4f4 9b3d a9c8 063d
000002f0: 7e9b d93d c458 c43d 257e db3d a748 59bd
00000300: 0493 433e a573 d13d 2555 e23c 1c0f 443d
00000310: b6fd c23b a31e b2bd 3e89 4e3b b149 8ebd
00000320: df10 0b3d 14ce 473d dbb7 f53d 32a3 923d
00000330: 925e 823c fcc6 943d 01cd 80bd c5f6 2ebd
00000340: 48f3 62bc 2560 fbbd f3f6 1dbd 7c44 343d
00000350: ee32 b2bd 2317 a5bd c49b f23d ba12 373c
00000360: 6f4e 2abe e89b 993d bc09 fdbc d4b1 4b3d
00000370: 7c07 d93d eebb b6bd faf3 55bd 59c9 59bd
00000380: 439b eb3c 7f12 aabd 2ce6 313d f7a7 3e3d
00000390: 07a2 4cbd e8b5 613d 6fde 51bc 9284 babd
000003a0: 5b61 dd3d 0750 c83d 9698 21bd 7790 64bd
000003b0: 622c 6ebd 3bd8 30bd 5f9e 2abc f17a f13d
000003c0: be7b 023d 1485 ecbd b594 d03d e33a a6bd
000003d0: b61b 4ebd 18ef dc3d 5784 a8bd 6dc6 8cbd
000003e0: fa9b b0bd 9e8e 973a 02f0 963d 6420 e43d
000003f0: 07ff c23d 36e1 ffbb b426 b2bc 3f62 89bd

lstm.weight_hh_l1 f4 [256, 64]
0.10764339 -0.11495984 -0.11336185 -0.054106656 -0.103697024 -0.00024863047 -0.03518501 0.12082046
0.07262521 0.024120316 0.05477469 -0.043719035 0.10754456 -0.03815836 -0.06914896 0.03061348
0.037160866 0.0039672055 -0.010090799 -0.09326873 0.0077009145 0.030868763 0.15192662 -0.018716974
-0.07102008 0.06370693 -0.068233006 0.12526597 0.06820293 -0.02364253 -0.007857893 -0.14047682
-0.079088025 0.028718088 -0.082304485 -0.079161204 0.025775656 0.0107435845 0.016346842 -0.056947578
0.0140735805 0.13233897 0.10113307 -0.101983085 0.0060859486 0.04734053 0.06676989 0.035455417
-0.0950303 0.07876736 0.012726503 0.13358846 0.00446553 -0.1414367 -0.079261996 0.08496076
-0.08794351 -0.02125505 -0.072747655 -0.015553995 0.009393867 -0.08352251 0.121425495 -0.018836442
-0.061626833 0.12307988 -0.019869834 -0.03242383 0.09629188 0.040464614 0.15211876 0.13926116
0.13620208 -0.07443772 0.047541965 0.084887266 -0.009342721 -0.033994403 -0.050463736 -0.110454306
-0.071641415 0.15266025 -0.028282395 -0.0637617 -0.02805226 -0.025362007 0.0133309085 -0.12549779
0.03986729 0.05060277 -0.07575887 -0.049522124 0.08790556 0.00050609926 0.056250334 -0.0052509406
-0.020546125 -0.032214347 0.0071588685 -0.12802702 -0.17630687 -0.18255852 0.09768144 0.027765905
-0.13526551 0.010462258 0.051434927 0.04488236 -0.01960971 0.06757848 -0.09165349 -0.21385856
0.024678424 0.06474566 -0.01291276 0.1168713 0.0677421 0.01999418 0.046887524 -0.16404773
-0.0105570955 -0.013598905 -0.10294893 0.19123401 0.0022604666 -0.043120958 0.022546904 -0.008602092
0.043837503 -0.032475088 0.032818437 0.11283419 -0.081418335 0.034005888 -0.11613004 0.048433464
0.09444212 -0.052403346 -0.10059738 0.0057249796 -0.08698536 -0.062112663 -0.0032119153 0.11448445
-0.0140159335 -0.014295118 0.086798824 -0.07446474 0.057759732 0.07451124 0.19173586 -0.101938
0.0813939 0.11565648 -0.040668897 0.017635873 0.049901087 0.0967202 0.06381494 0.105689004
-0.10826556 0.09486448 -0.038863655 0.016598964 0.10989797 -0.07772257 -0.08115645 -0.074280605
-0.11898312 -0.026967041 0.017819978 -0.058624223 -0.014481514 0.10695236 0.001395199 0.14196892
-0.12180223 -0.09976291 -5.5002194e-05 0.06425858 0.08730324 -0.014008864 -0.08879584 0.106675655
0.121293925 0.08524827 0.10521011 -0.09264432 0.086321004 0.08773421 0.1269048 -0.002665384
-0.016590558 -0.058180485 -0.08573539 -0.121009484 0.1442365 0.013658623 0.048086792 0.05893133
-0.08841437 0.03183617 -0.0027186763 0.09228482 -0.12228842 -0.040448442 -0.011950423 0.10036918
0.061693005 -0.1108995 -0.009046864 0.0985094 -0.08399959 -0.050177857 -0.004022099 -0.06869738
0.062362865 -0.07800211 0.09556235 0.056595504 -0.059109475 0.023958966 -0.0054129176 0.07917796
0.07509212 0.05865932 0.12742463 0.037449565 0.061788294 -0.03208232 0.10431747 0.057902284
-0.033557627 -0.11685095 0.02315266 0.06608102 0.068611324 0.12890376 0.042782385 -0.054854855
-0.12279646 0.041980933 0.006599764 -0.038506124 -0.08313942 0.08468661 0.048834376 0.07325238
0.08145231 0.0943364 0.090043426 0.11815393 0.0673563 0.005794727 -0.05754379 -0.06329991
00000000: 2374 dc3d 1170 ebbd 422a e8bd f19e 5dbd
00000010: 1b5f d4bd 9e5a 82b9 281e 10bd b870 f73d
00000020: 87bc 943d f897 c53c 6d5b 603d bb12 33bd
00000030: 5340 dc3d f14b 1cbd f89d 8dbd 1fc9 fa3c
00000040: fe35 183d 55ff 813b e153 25bc ad03 bfbd
00000050: f457 fc3b 7de0 fc3c a792 1b3e 5754 99bc
00000060: fa72 91bd c778 823d bfbd 8bbd b945 003e
00000070: faad 8b3d fbad c1bc 64be 00bc 28d9 0fbe
00000080: e7f8 a1bd 3242 eb3c 418f a8bd 451f a2bd
00000090: 7827 d33c dc05 303c d0e9 853c dd41 69bd
000000a0: e094 663c de83 073e db1e cf3d 82dc d0bd
000000b0: a36c c73b 25e8 413d a7be 883d b339 113d
000000c0: 3f9f c2bd c850 a13d d382 503c 6acb 083e
000000d0: 9553 923b c8d4 10be 1d54 a2bd e8ff ad3d
000000e0: ba1b b4bd 121f aebc b9fc 94bd 2fd6 7ebc
000000f0: bce8 193c da0d abbd eead f83d e24e 9abc
00000100: 6b6c 7cbd 4e11 fc3d 10c6 a2bc dace 04bd
00000110: ad34 c53d 39be 253d 05c5 1b3e 7a9a 0e3e
00000120: 8f78 0b3e ce72 98bd 5dbb 423d 60d9 ad3d
00000130: 3612 19bc b73d 0bbd 10b3 4ebd de35 e2bd
00000140: bcb8 92bd f852 1c3e 7bb0 e7bc 7f95 82bd
00000150: dacd e5bc fcc3 cfbc e269 5a3c 7e82 00be
00000160: e24b 233d da44 4f3d 7727 9bbd b6d7 4abd
00000170: d507 b43d bfab 043a c066 663d 1510 acbb
00000180: 5950 a8bc 31f3 03bd f194 ea3b 8419 03be
00000190: ca89 34be 9ff0 3abe 350d c83d 5375 e33c
000001a0: 0b83 0abe e469 2b3c 6ead 523d 91d6 373d
000001b0: 8ba4 a0bc 9666 8a3d d3b4 bbbd bdfd 5abe
000001c0: 682a ca3c 5f99 843d 0a90 53bc 385a ef3d
000001d0: 5fbc 8a3d d6ca a33c 220d 403d 21fc 27be
000001e0: abf7 2cbc f1cd 5ebc e3d6 d2bd d9d2 433e
000001f0: 5624 143b 9a9f 30bd 49b4 b83c caef 0cbc
00000200: f48e 333d 9904 05bd a06c 063d 9d15 e73d
00000210: a8be a6bd c249 0b3d 96d5 edbd 2b62 463d
00000220: df6a c13d e4a4 56bd 0006 cebd 9c98 bb3b
00000230: 6125 b2bd d969 7ebd ff7e 52bb d376 ea3d
00000240: 16a3 65bc 1236 6abc 95c3 b13d f880 98bd
00000250: 7895 6c3d 5999 983d 6856 443e dfc4 d0bd
00000260: d8b1 a63d 4edd ec3d 6e94 26bd 1b79 903c
00000270: 1565 4c3d 3d15 c63d 68b1 823d 7a73 d83d
00000280: 55ba ddbd 4f48 c23d 7f2f 1fbd 8dfa 873c
00000290: 3012 e13d 032d 9fbd 5a35 a6bd 6e20 98bd
000002a0: 6cad f3bd fce9 dcbc 34fb 913c f41f 70bd
000002b0: df43 6dbc d709 db3d 1cdf b63a 4d60 113e
000002c0: 7373 f9bd 7f50 ccbd 28b2 66b8 019a 833d
000002d0: 0bcc b23d 6f85 65bc 98da b5bd c478 da3d
000002e0: f368 f83d a596 ae3d 6678 d73d 4ebc bdbd
000002f0: 11c9 b03d fead b33d 55f3 013e b9ad 2ebb
00000300: ece8 87bc a94e 6ebd 0996 afbd d2d3 f7bd
00000310: bcb2 133e 6bc8 5f3c a8f6 443d fa61 713d
00000320: 9812 b5bd a566 023d d22b 32bb d3ff bc3d
00000330: 5a72 fabd 44ad 25bd b5cb 43bc 5b8e cd3d
00000340: ceb1 7c3d 471f e3bd 4c39 14bc 4cbf c93d
00000350: fa07 acbd 4c87 4dbd d0cb 83bb 36b1 8cbd
00000360: 3470 7f3d 92bf 9fbd 31b6 c33d b0d0 673d
00000370: c71c 72bd 9845 c43c d85e b1bb 0e28 a23d
00000380: e6c9 993d c144 703d 9a7b 023e b764 193d
00000390: b915 7d3d c068 03bd 66a4 d53d f22a 6d3d
000003a0: b973 09bd 8d4f efbd a6aa bd3c 7c55 873d
000003b0: 1884 8c3d 59ff 033e 953c 2f3d 7caf 60bd
000003c0: b67c fbbd 33f4 2b3d d542 d83b 99b8 1dbd
000003d0: 0045 aabd 2c70 ad3d 8e06 483d 5805 963d
000003e0: 78d0 a63d 7133 c13d b068 b83d b0fa f13d
000003f0: 1af2 893d b1e1 bd3b 0ab3 6bbd 62a3 81bd

lstm.bias_ih_l1 f4 [256]
0.1061349 -0.06881946 0.072057955 -0.10598388 0.089177385 0.05046645 0.06275807 -0.09340269
0.063673325 -0.060779825 0.011480631 0.07015453 -0.02266723 0.08156609 -0.06604484 -0.08499656
0.08083501 0.072163016 0.1117448 -0.055569135 -0.011457002 -0.038686804 0.0861029 -0.09937931
0.028124103 -0.034242164 0.04243101 0.027300784 -0.026768822 -0.060180288 0.03774539 -0.08243141
0.0891247 -0.006560368 0.074637294 -0.10331398 0.15457042 -0.047403537 0.06496503 0.050985772
0.06276674 0.09277003 -0.053790517 -0.06434563 -0.007990998 0.12489058 0.010884338 -0.12398535
0.0028423609 0.01308387 0.0887778 -0.07077293 0.03155713 0.0892339 -0.026493039 0.029955622
-0.023695368 0.13881037 0.1330279 0.09467278 -0.06261216 -0.07473925 -0.094450116 -0.042232122
0.106240764 -0.06620586 -0.07439296 5.1355284e-05 0.06709295 0.0777743 -0.08981136 0.09216548
0.09554247 0.07367326 -0.029208273 0.0120018115 -0.060617976 0.026678635 -0.06333795 -0.07986662
0.115290254 0.02389815 0.007271586 0.12989023 0.042028293 0.018913532 0.004159249 0.022096587
-0.08696223 -0.09595657 0.023941291 0.002100828 0.0139915645 -0.018998357 -0.0010068805 -0.087934114
-0.04281108 0.062837444 -0.09072116 -0.008692016 0.07669569 -0.08241599 0.10471051 0.119889565
-0.11327569 -0.044972397 -0.008918611 0.13303323 0.04124518 -0.096999064 0.08332256 -0.0704345
-0.07431599 -0.0060690534 0.06283116 0.042128842 -0.10867637 -0.09207587 -0.14827012 0.047457945
-0.10619607 0.013186553 0.051677883 0.117835395 0.11939818 0.06621073 0.045945384 -0.07339348
0.063391484 -0.043486275 -0.05567374 0.05695465 -0.020665621 -0.023850309 -0.08575411 0.032880135
0.08017577 0.09189629 0.027123816 -0.05196606 -0.12802951 -0.12725244 -0.04372622 -0.034357402
-0.06971724 -0.07973994 -0.0029806253 -0.061138477 0.06956343 -0.044795126 -0.010452018 -0.013513268
0.03780025 0.07717388 -0.021520846 0.107357845 -0.003721483 0.05415879 -0.07659824 -0.043950386
-0.10096162 0.13269569 0.14494634 -0.09685388 0.088730775 -0.11946345 -0.0661621 -0.04243282
0.10602437 0.12286931 -0.053642243 0.05888089 -0.08168752 -0.03633675 0.121347725 0.03845498
-0.043652955 8.516542e-05 -0.09127516 0.09480505 -0.0823353 0.034665845 -0.039552722 0.06467191
0.004813488 0.07129732 0.07220955 0.13530768 0.017122904 0.031915147 0.016279053 0.06391614
0.019989522 -0.052090235 0.05635772 -0.10029202 -0.017109597 -0.032655504 -0.08811736 0.009409834
-0.059898403 -0.028195882 0.13369535 -0.0665522 -0.020259254 0.05302714 0.008385225 -0.1027409
-0.08297192 0.09285735 0.06148868 0.082911395 0.13273628 -0.006287829 -0.038214084 0.09850619
0.014578228 0.016383031 0.034223553 -0.08492853 0.018208526 -0.047503937 -0.032856133 0.040175095
0.024269953 0.097008355 0.035370875 0.07353315 0.06918366 0.042074185 -0.04358921 0.07969011
0.08690838 -0.0150090605 -0.07599112 0.1310681 -0.018781906 -0.07096939 -0.0020248562 0.032036133
0.082935825 0.008362946 -0.0991682 -0.02937185 0.07293758 0.05036434 -0.053527106 0.06808299
0.029536393 0.016416958 0.037554406 -0.080719836 -0.046708208 0.088339634 -0.116707884 -0.050962616
00000000: 415d d93d 38f1 8cbd 1f93 933d 140e d9bd
00000010: a2a2 b63d e9b5 4e3d 4e87 803d e949 bfbd
00000020: 2967 823d 44f4 78bd 4219 3c3c 2ead 8f3d
00000030: a0b0 b9bc 1f0c a73d 8442 87bd ad12 aebd
00000040: d38c a53d 34ca 933d 75da e43d 769c 63bd
00000050: 26b6 3bbc 0e76 1ebd b856 b03d 6187 cbbd
00000060: 8564 e63c 8341 0cbd 24cc 2d3d e5a5 df3c
00000070: 4a4a dbbc 9b7f 76bd e99a 1a3d cdd1 a8bd
00000080: 0387 b63d 5bf8 d6bb 70db 983d 4896 d3bd
00000090: b547 1e3e 362a 42bd 630c 853d 75d6 503d
000000a0: d98b 803d 37fe bd3d 7253 5cbd a4c7 83bd
000000b0: adec 02bc a2c6 ff3d 3954 323c 08ec fdbd
000000c0: e746 3a3b ba5d 563c 23d1 b53d 66f1 90bd
000000d0: 0d42 013d 43c0 b63d ee07 d9bc 7e65 f53c
000000e0: ca1c c2bc 4e24 0e3e 7738 083e cde3 c13d
000000f0: ce3a 80bd e410 99bd 106f c1bd 97fb 2cbd
00000100: c294 d93d f096 87bd 565b 98bd 5166 5738
00000110: 0768 893d 2248 9f3d 05ef b7bd 41c1 bc3d
00000120: c5ab c33d 02e2 963d 3046 efbc 3fa3 443c
00000130: 8e4a 78bd 278d da3c 54b7 81bd 1c91 a3bd
00000140: 4c1d ec3d 0ec6 c33c 7c46 ee3b f201 053e
00000150: dc25 2c3d 8df0 9a3c 4f4a 883b e703 b53c
00000160: 4119 b2bd e184 c4bd 8720 c43c 0cae 093b
00000170: e03c 653c 71a2 9bbc 4ef9 83ba cd16 b4bd
00000180: ac5a 2fbd ebb0 803d 04cc b9bd f568 0ebc
00000190: a112 9d3d b7c9 a8bd 7772 d63d a988 f53d
000001a0: 16fd e7bd fa34 38bd 5e1f 12bc dd39 083e
000001b0: b5f0 283d 72a7 c6bd 05a5 aa3d f73f 90bd
000001c0: fb32 98bd e9de c6bb a0ad 803d 4b8f 2c3d
000001d0: b791 debd 4692 bcbd 1fd4 17be 4363 423d
000001e0: 537d d9bd 690c 583c 30ac 533d af53 f13d
000001f0: 0887 f43d 7e99 873d 3a31 3c3d 524f 96bd
00000200: 65d3 813d aa1e 32bd 260a 64bd 4749 693d
00000210: f34a a9bc b961 c3bc da9f afbd 52ad 063d
00000220: 3233 a43d 1f34 bc3d c432 de3c 5dda 54bd
00000230: 2b1a 03be 774e 02be 441a 33bd 59ba 0cbd
00000240: eac7 8ebd b24e a3bd 9856 43bb 576c 7abd
00000250: 4677 8e3d 187b 37bd f13e 2bbc c166 5dbc
00000260: 6fd4 1a3d 570d 9e3d 7c4c b0bc 6ede db3d
00000270: 20e4 73bb 9bd5 5d3d 8adf 9cbd 5205 34bd
00000280: f7c4 cebd 61e1 073e d06c 143e 545b c6bd
00000290: 7bb8 b53d 41a9 f4bd ff7f 87bd 09ce 2dbd
000002a0: 4e23 d93d e8a2 fb3d f8b7 5bbd 172d 713d
000002b0: c94b a7bd d8d5 14bd 2885 f83d f882 1d3d
000002c0: 71cd 32bd d69a b238 79ee babd 2629 c23d
000002d0: 699f a8bd c6fd 0d3d 0902 22bd b572 843d
000002e0: 77ba 9d3b 5404 923d 9ae2 933d 198e 0a3e
000002f0: 5545 8c3c 75b9 023d a65b 853c 77e6 823d
00000300: 11c1 a33c 925c 55bd 5ad7 663d e765 cdbd
00000310: 6d29 8cbc c7c1 05bd e076 b4bd b42b 1a3c
00000320: 0758 75bd 0dfb e6bc 6fe7 083e 854c 88bd
00000330: bcf6 a5bc fd32 593d 2f62 093c d269 d2bd
00000340: 2fed a9bd ff2b be3d 8edb 7b3d 73cd a93d
00000350: 05ec 073e 220a cebb 5f86 1cbd 9dbd c93d
00000360: 85d9 6e3c b535 863c ff2d 0c3d 02ef adbd
00000370: 0c2a 953c 7d93 42bd 2794 06bd a48e 243d
00000380: c8d1 c63c 51ac c63d 0de1 103d 8c98 963d
00000390: 2ab0 8d3d fb55 2c3d 998a 32bd 9234 a33d
000003a0: 05fd b13d 90e8 75bc 3ba1 9bbd b736 063e
000003b0: 83dc 99bc 6658 91bd 73b3 04bb 5238 033d
000003c0: 42da a93d bd04 093c b218 cbbd 3c9d f0bc
000003d0: 4c60 953d d74a 4e3d 3d3f 5bbd 186f 8b3d
000003e0: 4ef6 f13c db7c 863c a6d2 193d 7150 a5bd
000003f0: 1b51 3fbd 69eb b43d 8b04 efbd 2dbe 50bd

lstm.bias_hh_l1 f4 [256]
-0.09469702 0.09592741 0.082490504 0.017453576 -0.0055148625 -0.044708084 0.02366036 0.114825554
-0.045867465 0.0043892134 -0.09294652 -0.10710321 -0.028559513 -0.071055435 0.060445435 0.021866145
0.0584775 -0.11321342 -0.0895941 0.048505846 0.048550315 0.058531795 0.041227546 0.101771615
0.0692406 0.031060247 0.14170069 0.027409054 0.018719736 -0.029332446 -0.07408495 -0.01256399
0.077330664 0.11498608 -0.040027082 0.12056569 0.021806685 0.14893457 0.059262197 -0.068676785
-0.059513777 0.017885122 0.034472886 -0.046726946 0.04586504 0.13436188 0.018985434 -0.038207427
-0.12586044 -0.043906186 0.11717946 -0.0058533843 -0.04588447 0.08599991 0.048920203 -0.0654347
-0.045834158 0.07921822 0.05797666 0.10508471 0.14521696 0.063258745 -0.054633684 -0.0965018
-0.062467523 -0.056757975 0.09793018 -0.0900089 -0.06792629 0.0005377255 -0.110216536 0.04008641
0.05237119 -0.07430414 -0.011213479 -0.08795378 -0.084342375 0.033158254 -0.02539052 0.04464961
-0.046221733 0.1064835 0.049918257 0.12038246 0.111045316 0.09020921 0.016841467 0.04231595
0.05777695 -0.08040965 -0.10066387 0.009390765 0.12025693 -0.04437785 -0.034595344 0.077420466
0.08592738 -0.031383347 -0.08390632 0.007331894 0.12814562 0.05369238 -0.021014046 -0.063218996
0.033262473 -0.04747578 0.10855896 0.035323516 0.049290944 -0.069246784 -0.14043607 -0.114099555
-0.084046654 0.026654579 0.07377831 0.095934734 0.05736632 -0.12492224 0.05495698 -0.054067034
0.12181122 0.040020775 0.071409725 -0.0026958748 0.08412458 -0.066447705 0.06781575 -0.060938843
0.10515652 0.061889462 -0.07344917 -0.13961002 0.083770774 -0.14913727 0.12888595 0.09972654
0.015187613 -0.08376468 0.10669535 -0.08478772 -0.050589245 0.02857234 0.075042345 0.067018025
0.03737927 -0.06268734 -0.028566161 0.050491393 0.031234732 -0.043624826 0.09328625 -0.034618888
0.09978423 0.10457722 0.09052811 -0.04617565 -0.015355271 -0.014218772 0.140903 0.11222124
0.032596882 0.10226169 -0.067114234 -0.104707465 -0.12744224 -0.034227613 -0.0941578 0.053865027
-0.07795592 -0.029737042 0.075782254 0.039215285 -0.10609684 -0.050203934 0.10430744 -0.06488199
-0.09468411 0.034135006 -0.06293785 0.074286275 -0.1036014 -0.11879484 0.07593007 -0.015653655
0.123986304 -0.007161908 0.00958444 0.11705905 -0.08073063 -0.035106994 0.051787473 -0.06209179
-0.065284245 0.1249849 0.010470132 -0.0556006 0.084755905 0.09474307 -0.04404094 -0.0118676685
0.08006652 -0.008371894 0.07828369 -0.10477577 -0.027027538 1.876904e-05 -0.03429055 -0.10008603
-0.03037911 -0.12160777 -0.036926888 0.030081986 0.1250749 -0.010019712 0.09786876 0.10158571
0.059037667 0.0043777055 -0.0019851276 0.046987362 -0.04142518 -0.08540049 -0.059119258 0.020780068
0.09017804 0.029790575 -0.012631877 0.09158821 0.054589335 0.071382634 0.11146734 -0.10874726
0.12855107 0.027950177 0.10908239 0.10937628 0.08490912 -0.021581749 0.092966385 -0.049520817
0.069715604 0.101654254 0.10345064 0.013061711 0.05798056 0.032314457 0.15719806 -0.026169151
0.10269615 0.14051864 -0.024798905 0.085300826 0.08865922 -0.08189941 -0.02244668 0.07426982
00000000: 83f0 c1bd 9775 c43d c8f0 a83d cdfa 8e3c
00000010: 05b6 b4bb d31f 37bd 5fd3 c13c a929 eb3d
00000020: 86df 3bbd 64d3 8f3b bf5a bebd ee58 dbbd
00000030: a4f5 e9bc 8385 91bd a295 773d a120 b33c
00000040: 1a86 6f3d 70dc e7bd 1d7d b7bd 11ae 463d
00000050: b2dc 463d 09bf 6f3d 37de 283d a36d d03d
00000060: 04ce 8d3d 0f72 fe3c fc19 113e f488 e03c
00000070: 225a 993c 994a f0bc dab9 97bd 32d9 4dbc
00000080: 8a5f 9e3d d27d eb3d 70f3 23bd 25eb f63d
00000090: efa3 b23c 4e82 183e ebbc 723d 6aa6 8cbd
000000a0: b8c4 73bd d283 923c 7133 0d3d c164 3fbd
000000b0: fbdc 3b3d 2996 093e 5787 9b3c 647f 1cbd
000000c0: 8fe1 00be f9d6 33bd c9fb ef3d bfcd bfbb
000000d0: 5bf1 3bbd b920 b03d 8d60 483d a102 86bd
000000e0: 99bc 3bbd 2a3d a23d ef78 6d3d a736 d73d
000000f0: c1b3 143e cd8d 813d 92c7 5fbd bca2 c5bd
00000100: f2dd 7fbd 0d7b 68bd 9e8f c83d 9656 b8bd
00000110: f01c 8bbd 26f6 0c3a 35b9 e1bd a631 243d
00000120: 2c83 563d c52c 98bd bdb8 37bc 1d21 b4bd
00000130: b2bb acbd f3d0 073d c8ff cfbc 82e2 363d
00000140: 0053 3dbd 0514 da3d 1677 4c3d 148b f63d
00000150: ba6b e33d 9bbf b83d 1ef7 893c 7d53 2d3d
00000160: 86a7 6c3d d1ad a4bd dc28 cebd b9db 193c
00000170: 4449 f63d 8cc5 35bd d9b3 0dbd 9f8e 9e3d
00000180: b2fa af3d d38b 00bd 14d7 abbd 6240 f03b
00000190: 9b38 033e 8bec 5b3d a625 acbc f678 81bd
000001a0: 3b3e 083d f775 42bd 2954 de3d 64af 103d
000001b0: 4de5 493d 42d1 8dbd 79ce 0fbe 07ad e9bd
000001c0: a720 acbd b45a da3c 1519 973d 6e79 c43d
000001d0: f2f8 6a3d 3bd7 ffbd 921a 613d 6575 5dbd
000001e0: 2978 f93d d3ec 233d 433f 923d 46ad 30bb
000001f0: 8249 ac3d bc15 88bd fce2 8a3d 029b 79bd
00000200: 4d5c d73d ce7f 7d3d 856c 96bd eef5 0ebe
00000210: 0390 ab3d 71b7 18be aefa 033e 6e3d cc3d
00000220: 77d5 783c d18c abbd 1783 da3d 2fa5 adbd
00000230: ab36 4fbd 8a10 ea3c cdaf 993d bf40 893d
00000240: 011b 193d 3862 80bd 9503 eabc 10d0 4e3d
00000250: fbdf ff3c f2af 32bd dd0c bf3d 89cc 0dbd
00000260: ad5b cc3d 952c d63d cd66 b93d ae22 3dbd
00000270: ad94 7bbc daf5 68bc e048 103e 40d4 e53d
00000280: 4f84 053d 946e d13d 3073 89bd de70 d6bd
00000290: 3880 02be 4132 0cbd ced5 c0bd 93a1 5c3d
000002a0: 5aa7 9fbd 199b f3bc ba33 9b3d 35a0 203d
000002b0: 4d49 d9bd a4a2 4dbd 249f d53d d9e0 84bd
000002c0: bee9 c1bd 26d1 0b3d 8fe5 80bd 6723 983d
000002d0: f92c d4bd b64a f3bd 3981 9b3d 183c 80bc
000002e0: 88ec fd3d 70ae eabb 0e08 1d3c a8bc ef3d
000002f0: 1a56 a5bd 5acc 0fbd 1a1f 543d f653 7ebd
00000300: bfb3 85bd 15f8 ff3d eb8a 2b3c 74bd 63bd
00000310: 8194 ad3d a808 c23d 4664 34bd 9c70 42bc
00000320: eaf9 a33d 452a 09bc 3353 a03d ae94 d6bd
00000330: db68 ddbc 3572 9d37 3f74 0cbd e8f9 ccbd
00000340: 9cdd f8bc 7f0d f9bd a640 17bd 7f6e f63c
00000350: a213 003e b829 24bc 6b6f c83d 2b0c d03d
00000360: 7bd1 713d db72 8f3b ea18 02bb d275 403d
00000370: 73ad 29bd 74e6 aebd 0927 72bd f63a aa3c
00000380: 44af b83d 5d0b f43c eff5 4ebc 9992 bb3d
00000390: 1199 5f3d 0f31 923d fd48 e43d e2b6 debd
000003a0: e4a2 033e c5f7 e43c 9766 df3d ac00 e03d
000003b0: d5e4 ad3d 35cc b0bc 2965 be3d 57d6 4abd
000003c0: 0ec7 8e3d 1b30 d03d eedd d33d c900 563c
000003d0: 067d 6d3d 2a5c 043d 87f8 203e b060 d6bc
000003e0: 5c52 d23d 1ee4 0f3e 1327 cbbc 33b2 ae3d
000003f0: f792 b53d e1ba a7bd 1ae2 b7bc c61a 983d
