IEP1_forecasting/model/multi_output_lstm.pth (torch, 222468 bytes, 10 tensors)

lstm.weight_ih_l0 f4 [256, 14]
00000000: 4d55 0e3e 0713 83bc 0a8b 633d 9ad3 babd
00000010: 6315 753d 1aa0 7cbd 1dc0 65bd 1a2d 473d
00000020: 9926 ccbc 8c33 973d 22c1 933d 193a b9bd
00000030: fbe2 19bb e9fb 6b3c 7f95 de3d 3c36 9fbc
00000040: 41b0 de3d e1f8 a23d aae4 c0bd 4b8a ad3c
00000050: 01d7 313d 360e 233e c2ae 7ebe 4f0c 603d
00000060: 9fed 173e 6c4a a4bd 43b6 253e bdcc c03c
00000070: 5553 78bd 6605 9dbb 7f0b 2bbd 0958 f93d
00000080: 2003 c5bd 8432 77bc 4f9d 11bc c54b e33c
00000090: 6ad6 ad3d 682a 50bd 99ed ab3d 0638 bfbd
000000a0: 5c36 953d 4774 a4bd af9d 073e 8dc0 193e
000000b0: 21fb 1a3e 2df9 45bd 841a 77bc 43a6 133d
000000c0: c574 2c3e 4aaa acbc 9899 483d bc9d ca3c
000000d0: 9265 873d 3041 58bd 1357 72bd 8a81 e53d
000000e0: b41c 083e 34c2 053e fef4 adbc ee1a 9bbd
000000f0: ba49 2abd 148d 6f3d d4b9 823d e75d 4cbd
00000100: 5bea 01bc 7563 a33d c5f9 a03d 1a0e a6bc
00000110: b483 4abd acbf bcbd f7a9 81bd e0c2 fd3d
00000120: b1cf 1f3d e5c6 b13d 11a6 05bd c381 823d
00000130: 3055 773d 429e 9ebb 4b9c 803c 911a aabc
00000140: eb60 d93d e36d e73d 34fd fd3d c1b0 b33b
00000150: ca02 8cbd fb67 98bd 6823 68bd c821 963d
00000160: 5f5f 363d b604 85bd 8469 d43a 6ecc b9bd
00000170: cd5b 10bd c891 013e 0e10 acbd 2c88 67bd
00000180: 2e08 11bb c30d 89bd 3f42 9abd e1da eabd
00000190: 2ba6 0d3e 5766 ba3d 8943 9abd 99f8 22bd
000001a0: 6cc7 223e 012f 943d 5069 8c3d 7daf 583d
000001b0: 7f91 bfbd 077e a1bc ee46 82bc 388f 35bd
000001c0: c4be 153d 3905 fb3d ee2f 443c 44b0 ea3d
000001d0: 6a3d b53b 17a3 84bc ae79 3a3e 932a 03bd
000001e0: 0801 e9bc 3d57 9d3d c6df 9c3d 48e2 cbbd
000001f0: 8460 993c 08ea 1c3e 286b f03d 1114 83bd
00000200: 0dba b33d dc5e 7abc 715e 5d3d 7721 843d
00000210: 3035 053e 12fe a0bd c759 823d 8669 c73c
00000220: d829 b8bc 1ca0 6c3d cba7 d3bd 6dbb f83d
00000230: c406 8bbc 183b 1c3e e034 e93d 4169 963d
00000240: c9f0 39be 7118 7fbe 6b06 203d 35d2 84bc
00000250: 9104 e63d c044 d93d e5e9 073e b6f2 873d
00000260: 4649 573e e87a 8c3d f6b4 15bd 1152 653d
00000270: 7fbd c6bd beb3 ea3d 7201 55bd 4da3 ee3d
00000280: be0a 3cbd 7ee1 9abd 914d 8dbd 5b84 d73c
00000290: 25be e53d 72fa 04bd b9f5 60bd e5c0 f63d
000002a0: eaac 0d3e 8903 ee3d fd80 8f3d ef65 af3c
000002b0: 3a5f b93c a172 e63c cc16 c83b 6ea5 523d
000002c0: 3ab5 11bd 6f62 c3bc 2e96 11bd f83e a2bd
000002d0: 4d93 a03c 1da0 2abd 5d93 423d 6bb6 143d
000002e0: 443e 91bc cf33 0bbd 634e 1d3e 4436 123d
000002f0: d1e0 fe3b 2f46 e53d e9dd 223d ba59 6fbd
00000300: 6638 f03d 9473 a2bd 635c ca3d da14 d33d
00000310: b7ca 1a3c f030 703d 5377 113e f703 64bd
00000320: ded7 55bd 77fc b63c 811a 28bd 2358 913c
00000330: 191f c93d ed0b 193d bb24 9b3d 8e0f d53d
00000340: 73bb 843c e922 553d 1c33 d93d 71d6 9bbd
00000350: e0ff 573d feb0 d83d c050 4f3c 2c1b 2abd
00000360: efcb a5bc a04e 82bd c444 ecbc bd6e 8dbd
00000370: f025 44bd df73 d9bb 4e8f ad3d 3be1 65bd
00000380: 6588 a03d e3e2 acbd 0d5c 083e df98 073e
00000390: 9531 6e3d 7dae 81bd 1d75 ac3d a9f8 9f3d
000003a0: ce73 dbbd b7ab c43d f215 49bd 3aa9 bf3b
000003b0: b8e5 3c3d 7c08 6b3c c205 0b3e 8715 ddbd
000003c0: dd9e 44bc 4c8d 133e 0f6c be3c 9f48 18bd
000003d0: eec2 183e e793 b8bd 7408 0abe 2996 ba3d
000003e0: 9699 a33b d41a 96bc 1630 71bd e363 71bd
000003f0: 90e1 603b 8cd9 23bb ed71 3d3e c671 1f3c
0.13899727 -0.016000284 0.05555252 -0.09122391 0.05983485 -0.061676122 -0.056091417 0.048626997
-0.024920749 0.07382879 0.072145715 -0.090442844 -0.0023481238 0.014403322 0.10868358 -0.01943504
0.108734615 0.07957626 -0.09418614 0.021184107 0.043417934 0.1592339 -0.24871352 0.05469924
0.14836739 -0.08022007 0.16182809 0.023535127 -0.060626347 -0.0047919033 -0.04175901 0.121749945
-0.09619737 -0.015087727 -0.008887603 0.02774609 0.08488162 -0.05082169 0.083949275 -0.093368575
0.07285759 -0.08029991 0.13243745 0.15014859 0.1513486 -0.048333336 -0.015082005 0.03604723
0.16841419 -0.021077294 0.048974603 0.024733417 0.0661117 -0.052796543 -0.05916507 0.11206348
0.132922 0.13062364 -0.021234985 -0.07573496 -0.041574217 0.058484152 0.063831 -0.04989424
-0.00792941 0.07977954 0.0786014 -0.020270396 -0.04944201 -0.09216246 -0.06331246 0.12390685
0.03901643 0.08680514 -0.032629076 0.06372406 0.060383976 -0.004840643 0.015699526 -0.020764621
0.10614189 0.11300256 0.1240181 0.005483717 -0.068364695 -0.07441708 -0.05667439 0.07330662
0.044524547 -0.06495039 0.0016205763 -0.09072195 -0.035243798 0.12653267 -0.084015 -0.056526348
-0.002213012 -0.06692078 -0.07532167 -0.11467529 0.1383292 0.09101551 -0.075324126 -0.039787862
0.15896386 0.07235528 0.06856024 0.052901734 -0.09353923 -0.019713415 -0.015902963 -0.044326037
0.03655888 0.122568555 0.011974318 0.11459401 0.005531003 -0.016191049 0.1821048 -0.032023024
-0.028442875 0.07682655 0.07659869 -0.09955269 0.01872278 0.15323651 0.117391884 -0.06400312
0.08775721 -0.015281405 0.054045144 0.064516954 0.1300857 -0.0786096 0.0636478 0.02434231
-0.02248089 0.05776988 -0.10334738 0.12145124 -0.016971 0.15256917 0.11387038 0.07344294
-0.18158258 -0.24911667 0.03906862 -0.016213516 0.1123134 0.10608816 0.13272817 0.0663809
0.21024045 0.0685938 -0.03654953 0.055986468 -0.09704112 0.11460064 -0.05200333 0.11652241
-0.045908682 -0.075625405 -0.0689956 0.02630823 0.11217908 -0.032465406 -0.05492184 0.120485105
0.13835493 0.11621768 0.070070244 0.02141091 0.022628415 0.028130831 0.006106233 0.051427297
-0.03557322 -0.023850648 -0.035543613 -0.079221666 0.019601488 -0.041656602 0.047503818 0.03630678
-0.017729886 -0.033984955 0.15361933 0.035696283 0.007778265 0.11195027 0.03976241 -0.05843518
0.11729507 -0.07932201 0.098809026 0.103067115 0.009447745 0.05864042 0.14205675 -0.055667844
-0.05220782 0.022337181 -0.0410409 0.017742222 0.098203845 0.03736489 0.07575365 0.104033574
0.016202664 0.052035246 0.106054515 -0.07609261 0.052734256 0.105806336 0.01265353 -0.04152982
-0.020238845 -0.06362653 -0.028841384 -0.06905887 -0.047887743 -0.0066361274 0.08474599 -0.056123
0.07838515 -0.08441713 0.13316365 0.1324191 0.058152754 -0.06332109 0.08420775 0.078111
-0.10715447 0.096030645 -0.049093194 0.005849031 0.046117514 0.014345285 0.13576415 -0.10795122
-0.012000767 0.14409369 0.023244886 -0.037178632 0.1491811 -0.09012585 -0.13479787 0.09110672
0.004992674 -0.01832334 -0.05888375 -0.05893315 0.0034314133 -0.0025001494 0.1850049 0.009731716

lstm.weight_hh_l0 f4 [256, 64]
00000000: 65c6 d5bd c60c e6bc 259f e33c c270 55bd
00000010: ab46 18be e3ac 77bd cd88 083e 74e3 ebbd
00000020: 137e ddbd 2b56 d13d 54b8 83bb 7062 ca3d
00000030: 2b7b 563d bc03 d83d 57d7 abbd 372c 563d
00000040: e5e1 ba3d d57d 3f3d c63d 243e 9eed c63d
00000050: 3b4a 0dbd c298 12bc ee2f c03d 3663 25bd
00000060: 4eff 423d 3d70 3dbc 75c7 033e 0910 a73b
00000070: d56b 9bbd c357 72bd 7f51 c3bd 825a 6d3c
00000080: 5f45 e3bd 2503 7f3d 55c2 2bbd 9482 d9bd
00000090: 2c4a 613d d596 86bd 2fd2 73bd ab27 3fbd
000000a0: 928c 5bbd 3177 ce3d 0db4 9fbc 46d0 9f3c
000000b0: 7665 b43d fddb 99bd 8252 32bd d4ea b83d
000000c0: 660b 1d3e 859c a63d 962b e7bd 284c 943d
000000d0: 8890 c3bd 9261 803d 3b17 d03d c6a5 b4bd
000000e0: 9f5b 24bd ebc6 eabc beeb c23d 3f77 4d3d
000000f0: 7702 4e3e 0e0e 1bbd b3d9 6ebd 8c68 0abe
00000100: 5395 bebd db80 033a 322e e53d a4d2 053d
00000110: cdd8 aa3d 8038 51bd 8b60 3dbd 99a9 813b
00000120: 0c9e 65bd 50a8 953d bcf5 5c3c 7a74 ac3d
00000130: b5fa 0e3d 39bd a1bd a3ce 19bc e7cd 56bb
00000140: 6baf e13c 852f 9fbc b9cc c83d c0c0 fd3a
00000150: fc08 113c bf79 05be f694 363c 4db8 9d3d
00000160: 30f7 f5bd 0187 9fbb ddcb 07bd 05f9 afbd
00000170: 2aef cdbc c52d 9cbd 9d75 6d3c a1c6 51bd
00000180: f308 0d3d 908e ecbd d0f6 713d e663 8cbd
00000190: 854f 2ebd 0398 bbbd 526a 06be 996c fb3d
000001a0: c589 8d3d 62e6 123d 4a1c 3e3d 09c2 78bd
000001b0: 1625 5b3d ecb7 5ebd 454b a43d ddf0 89bc
000001c0: 4b5a a73d 6965 3bbb 86e7 a83d dbfb 053e
000001d0: ade8 84bc 12b1 133d 7a0b efbc 9bc9 03be
000001e0: 3ed8 adbd 7670 50bd 9c4b aa3d 30be ff3d
000001f0: beed 64bc 3913 b4bd c035 77bd 8076 b43d
00000200: 9dc7 67bb 63e3 dd3d 4ff3 f03d 47f9 0abe
00000210: 7694 693d d796 4abd 6c9c aa3d 3175 a2bd
00000220: 4143 16bc 391d 573b aa04 72bd 6711 3b3d
00000230: ecf8 ffbd 4e41 dfbd 0e8c 7abd d47e 28b9
00000240: b529 1bbd 6023 833d cd51 72bd 9eb1 ae3d
00000250: cd7d d8bd e4d6 91ba 3376 9bbd b2f0 073e
00000260: c832 9f3c fe35 53bc eb35 a3bd a58e d43c
00000270: 642d b8bd 00bf 16be 3919 e53d 7a95 2a3d
00000280: 63a4 8abd 5d9e d93d 5634 1ebd f4bd 2a3d
00000290: 4154 633d 304e f03d 111a c9bd cf2f 3f3d
000002a0: 4bf8 44bd 591f a6bd 325a b5bc 87af be3d
000002b0: 0284 27bd 5653 133e 1ccc f8bd 1c0a 023e
000002c0: 7bc9 143e 7de2 b7bb d730 2dbd ddee 7d3d
000002d0: ab56 bb3d 0fa9 6ebd 60e8 3ebc c8ad ff3c
000002e0: fbc4 e5bd 99a0 9dba 594d 4fbd 97ff e6bd
000002f0: 85fb edbd 9867 7dbc 9c99 b1bd ebe5 073d
00000300: 8470 e43d ff08 ac3c 44ff f53d 67f6 193e
00000310: f6f6 0ebe d994 b03d e1ad 8bbd fb87 293d
00000320: b8bb 04be 5b78 b33d 88d7 cbbd 7f5d 15be
00000330: 7a46 07bd d77a 363c 4f62 113d c187 14bd
00000340: 3662 193d c62e 0a3e 27dc f13b ebea edbc
00000350: f6b2 8ebd 838f 1b3d 9d4b 873d 31be b9bc
00000360: 8d38 f1bd 05d8 88bd 0a4a 67bc e214 a5bc
00000370: 56bc 0abe 9c3e e43d 31b6 183d 67f7 54be
00000380: e018 293d c1b9 ebbd be59 953d 500d a7bc
00000390: ee95 733d 8360 dc3d b66b 7bbe b835 a4bc
000003a0: 706b f7bc 26c2 3f3e 78d6 943e a510 123e
000003b0: f7ed d1bd 3c9a 473e 932f 98bd ada4 903c
000003c0: fd1b ce3c 1d12 5f3d 67c9 af3c 18c0 733b
000003d0: be29 123e 2c3b 863b bd5d 813d 6daf 05be
000003e0: cbfc 09be 4834 28be 1762 c63d cc7e 3a3d
000003f0: d0d8 81bd e812 b93d 13a6 8d3d cbf8 98bb
-0.104382314 -0.028082263 0.027785847 -0.052109487 -0.14870708 -0.060467612 0.13333435 -0.115179926
-0.108150624 0.10221513 -0.0040197764 0.09882057 0.052363556 0.10547587 -0.08390682 0.05228826
0.09125117 0.046750862 0.1603919 0.09713291 -0.03449462 -0.008947553 0.09384142 -0.040377818
0.04760676 -0.011562404 0.12869056 0.005098347 -0.07588927 -0.059165727 -0.095370285 0.014486911
-0.11097216 0.06225886 -0.041933376 -0.10620609 0.055002376 -0.06571738 -0.05952662 -0.04666869
-0.053600855 0.10081328 -0.019495035 0.019508492 0.08808415 -0.075126626 -0.043535717 0.09029165
0.1533638 0.081353225 -0.1128761 0.07241088 -0.095490515 0.0626861 0.10160681 -0.08820681
-0.04012644 -0.028659305 0.095176205 0.05016255 0.20118128 -0.0378552 -0.058313083 -0.13516444
-0.09305825 0.00050164544 0.11190452 0.032671586 0.08342133 -0.051079273 -0.04623465 0.003956985
-0.05605893 0.07307494 0.013486322 0.08420654 0.03490706 -0.078974195 -0.009387645 -0.0032776536
0.027549466 -0.019431839 0.09804673 0.0019359812 0.00885224 -0.13034724 0.0111439135 0.07701168
-0.12010038 -0.0048683886 -0.033153404 -0.085924186 -0.025138456 -0.07625917 0.014493373 -0.051214818
0.034432363 -0.11550629 0.05907327 -0.068549916 -0.042556304 -0.09159853 -0.13126495 0.12276573
0.06911043 0.03586424 0.046413697 -0.06073192 0.053502165 -0.05437462 0.08022169 -0.016838485
0.08171519 -0.002859438 0.082472846 0.13084356 -0.01622423 0.03605754 -0.029180277 -0.12869875
-0.084885105 -0.0508885 0.083152026 0.12487447 -0.013972698 -0.08792729 -0.060353994 0.088116646
-0.0035366782 0.10834386 0.117651574 -0.13571654 0.05702635 -0.04946026 0.08330616 -0.07932509
-0.009171308 0.0032823815 -0.05908648 0.045670893 -0.1249865 -0.10901128 -0.061168723 -0.00016068976
-0.03788157 0.064032316 -0.059160043 0.085299715 -0.105708696 -0.0011126664 -0.07590904 0.13275412
0.019433394 -0.012891291 -0.079692684 0.025946924 -0.089930326 -0.14721298 0.111864515 0.04164646
-0.067696355 0.106259085 -0.03862413 0.04168506 0.055500273 0.11733663 -0.09819425 0.046676453
-0.048088353 -0.08111448 -0.022137735 0.09310823 -0.040897377 0.14387259 -0.12148306 0.12699169
0.14529984 -0.0056117163 -0.042282905 0.061995376 0.0914739 -0.058266696 -0.011652082 0.031210795
-0.11219212 -0.0012026011 -0.050610874 -0.11279219 -0.11620239 -0.015466593 -0.08671877 0.03317825
0.11154273 0.021000383 0.12011579 0.15035401 -0.13961396 0.086221404 -0.06820274 0.041389447
-0.12962234 0.0876319 -0.09953219 -0.14586447 -0.033026196 0.011137686 0.035494145 -0.036262278
0.037447177 0.13494405 0.0073809805 -0.029042682 -0.06967728 0.03797866 0.06606219 -0.022673698
-0.11778364 -0.066818275 -0.014116773 -0.02015156 -0.13548407 0.11144754 0.037283126 -0.20797502
0.04128349 -0.11510039 0.072925076 -0.02039209 0.059469156 0.10760596 -0.24552807 -0.020045146
-0.030202597 0.18726406 0.29069877 0.14264162 -0.10250466 0.1949243 -0.07430949 0.017656649
0.02515983 0.054460634 0.02145834 0.0037193354 0.14273736 0.0040964093 0.06316707 -0.13055201
-0.13475339 -0.16426194 0.09686678 0.04553108 -0.06340182 0.09036809 0.06916442 -0.0046683303

lstm.bias_ih_l0 f4 [256]
00000000: fe1b de3d f06a c83d 2e8b 41bd 216e aa3d
00000010: 659c d83d a1b7 ca3a c30e 863d 5dc2 fe3d
00000020: 3b85 81bd 3fa9 123d 1d0f 473e 08fb 74bc
00000030: 86f1 0a3d a0d5 b33d 35a4 84bd 0389 f33c
00000040: d9cd 0a3e e61d 11bd f2ff 893d 13ad b83c
00000050: ec25 093d 8369 483d a8bb d53d 2dfc 67bd
00000060: a34a dcbc 8085 2a3d eb1e fa3d 0eef 22bc
00000070: c1ba ed3c 8ee7 7c3d 76da c83d 82a1 c4bb
00000080: c6ac 1cbd 2160 cb3d 8b77 8b3c 794d a7bc
00000090: c315 663d 361f c03d cd53 c53b 71b7 bf3b
000000a0: 97c7 debc ccad 033e 658b 41bd b25b 5e3b
000000b0: 198d da3d d6f5 1d3d 01dd f73b fa40 323e
000000c0: 36e4 bb3d f38f c3bd 242e 6dbd 98fa 9a3d
000000d0: 29c4 3cbd 555e c23d 8596 8c3d 0753 40ba
000000e0: 8c42 75bd 602f 1fbb 4224 b0bd db52 cc3d
000000f0: 924a 21bd d2bb 813d 088b c4bd 8453 933d
00000100: 69b4 4b3d 319c f73d 92ca 94bd 7cc7 873d
00000110: fac3 97bd 5ba2 9abd cf12 ae3d e831 9b3d
00000120: f839 1c3e b806 a5bd e241 f63d c2ee 023e
00000130: aeb0 21bd 2638 17bd 9886 e53d af40 103e
00000140: b93e db3d afe8 a0bd b3fd 963d 73f6 ec3d
00000150: 3610 ddbc d48b cf3d 07a1 96bd 0b8c 7b3d
00000160: dd2b ab3d 750c b8bd ea92 77bd 1f86 99bd
00000170: 9876 f7bc 0645 dd3d 6db4 cf3d f54a 36bc
00000180: 322e 8bbc 5dab 553d dd77 0d3e ce30 b4bc
00000190: 6b1f 2dbd 951b d93d 8ef0 f4bd 9800 ffbd
000001a0: aa22 e63d d3de 7a3d 7772 9e3d f2bc 8abd
000001b0: 7797 273e 000c 8dbd b9e5 92bd 81b8 d63d
000001c0: 1fe2 ddbd b935 e93d 2d20 a93b 0e26 b73c
000001d0: d1dc 8fbd db8e d6bd 46ff a03c 49de 0dbc
000001e0: 2b79 0b3e 0f08 e0bd 08a9 043d 9586 483d
000001f0: 3e3f b23d c094 83bc 6312 25bd a61c 123e
00000200: e1fe 133e 8e1a b43d 6b05 a53d 992f 0c3d
00000210: c393 09be 8071 ae3d 8e0c b0bc dfd2 07bc
00000220: 893a 603d 756f 013e 9f7b 293d 7baf b2bd
00000230: f0df b6bd 4180 ffbd 90ef 283d 0e8a 0fbe
00000240: e7f4 af3b a62d 72bc 8ca4 923d 49d9 803d
00000250: 9934 55bc 6916 6d3c d0ec 0d3d 2d75 63bd
00000260: 34cc b8bd 3f5b 87ba 067c 9d3c 5e14 e73d
00000270: 2956 ac3d 9a7c f13d 8713 0e3e eeac cabd
00000280: e397 ccbc 30a3 dcbd 9a05 59bd fd39 a5bd
00000290: 23a5 b33d 0c4e 2938 90ea 363c 4f8b 54bc
000002a0: 6646 04be b9dc fc3c a664 b9bb 3851 523d
000002b0: 6933 a53d 0690 de3d cacf 9f3c 3d8e 01be
000002c0: aac3 983c 6078 f33c ef14 363b 5613 933d
000002d0: 1b03 b6bd ecc2 c43d 6267 5b3d 69ab bdbd
000002e0: 109a 17be 5aa8 51bc 2084 8f3d da93 99bc
000002f0: 1865 00bc 2b19 863d 817c 98bd 5e35 c43c
00000300: 1f29 f3bc 0bf3 c63d e02d 3c3c 7ac1 213e
00000310: 03dd a13d 47fc e43d 32a2 10bd e6cf bd3d
00000320: a677 f23d b0eb 91bb bd7b 623e b479 08bd
00000330: 4728 ba3d 7a25 be3d e35e b43d d9c1 2b3b
00000340: 00ee d73d 71b1 c33d 88d7 a83d f07b 883d
00000350: 00c5 5bbd efa6 7b3d 2ea7 a7bd c4cd f03d
00000360: 2c7e 8b3d 675a 073d 5228 e33d 1410 c13d
00000370: 54b5 663e 85fc 1d3c 5cd4 46bd 786b 2fba
00000380: 6064 053e 21d0 5f3d 0442 4c3d 2834 f03d
00000390: e2d0 23bd a920 013e 465d 99bc f261 ab3c
000003a0: c76e 14bd ff96 4e3d 8685 db3d e7d0 553d
000003b0: 29dc 703e 4b76 f93d 7ae5 953d d1fc c23d
000003c0: 3cc2 b339 1cb6 c33d 0ddc 053e 1818 193d
000003d0: 8c70 9d3d 09cd b13d c5f8 743d 1be9 8f3d
000003e0: 4e55 86bc fa55 44bd 4880 7d3d a206 7cbd
000003f0: df68 8b3d f5fe 3e3d f287 cfbd 8af1 02bd
0.10845183 0.09786022 -0.047251873 0.08321787 0.10576705 0.0015466103 0.06545784 0.124394156
-0.0632424 0.035805937 0.19439359 -0.014952429 0.03392174 0.0878098 -0.064766325 0.029728418
0.13555087 -0.035428904 0.06738271 0.022543466 0.03348343 0.04892875 0.10436183 -0.056636978
-0.026891058 0.04163122 0.122129284 -0.00994469 0.029019715 0.061744265 0.09807293 -0.0060006985
-0.038250707 0.099304445 0.017024776 -0.020422684 0.056173097 0.09380953 0.0060219527 0.0058507253
-0.027194781 0.12859267 -0.047252078 0.0033929166 0.106714435 0.038564526 0.0075641875 0.17407599
0.09174387 -0.095489405 -0.05790533 0.07567328 -0.04608551 0.09490649 0.06864647 -0.0007336591
-0.059877917 -0.0024289712 -0.08600666 0.09976741 -0.039377756 0.06334652 -0.095968306 0.07193664
0.0497326 0.12090338 -0.072652 0.066298455 -0.074104264 -0.07550498 0.08499681 0.07577878
0.15256488 -0.08057922 0.12024285 0.12786391 -0.039475136 -0.03691878 0.11207312 0.14087175
0.10705323 -0.07856881 0.07372608 0.11570444 -0.026985269 0.10134092 -0.07354932 0.061412852
0.08357976 -0.08986751 -0.060442843 -0.07496285 -0.030207917 0.10804181 0.10141835 -0.01112627
-0.016989801 0.052165378 0.13815255 -0.021995928 -0.04226629 0.10600964 -0.11959945 -0.12451285
0.112370804 0.061247658 0.07736676 -0.0677432 0.16366373 -0.068870544 -0.07172722 0.1048441
-0.10834145 0.113872 0.0051613064 0.022357013 -0.07024539 -0.10476466 0.019652974 -0.008658954
0.1362044 -0.10939037 0.032387763 0.048956472 0.08703469 -0.01606214 -0.040300738 0.14268741
0.14452697 0.087941274 0.08057674 0.03422508 -0.13435273 0.08517742 -0.021490362 -0.008290022
0.054743323 0.12640174 0.04137766 -0.087248765 -0.089294314 -0.12475634 0.04124409 -0.14017507
0.005369771 -0.014781391 0.07160291 0.06291444 -0.013013029 0.014470675 0.03464967 -0.05553167
-0.09023324 -0.0010326876 0.019224178 0.112831816 0.08414871 0.11791344 0.13874637 -0.09896265
-0.024974769 -0.10773313 -0.052983858 -0.08067701 0.08771732 4.0365427e-05 0.0111643225 -0.012972667
-0.1291748 0.030866968 -0.00565775 0.051346987 0.08066446 0.10867314 0.019508261 -0.12651916
0.018647987 0.029720485 0.0027783473 0.071814224 -0.08887311 0.09607491 0.05356539 -0.092612095
-0.14804864 -0.012796486 0.07007623 -0.018747259 -0.007836603 0.06547769 -0.07445622 0.023951229
-0.029682694 0.097143255 0.011485547 0.15796462 0.07903483 0.111809306 -0.03531093 0.09268169
0.118392274 -0.004453145 0.22117515 -0.03331919 0.090897135 0.09284492 0.08807161 0.0026208072
0.10543442 0.09555329 0.08244234 0.06664264 -0.05365467 0.061438497 -0.08186184 0.11757997
0.06811175 0.0330452 0.11091675 0.09426895 0.22530109 0.009642725 -0.048542365 -0.00066917343
0.13026571 0.054641847 0.049867645 0.11728698 -0.039994128 0.12610115 -0.018721234 0.020920727
-0.036238458 0.05043697 0.10718827 0.052201178 0.23521484 0.12180766 0.0731916 0.09520877
0.00034286256 0.09556219 0.13072224 0.037376493 0.07687482 0.086816855 0.059807558 0.07026883
-0.016398098 -0.047933556 0.061889917 -0.061529763 0.06807112 0.046629865 -0.101333514 -0.03196863

lstm.bias_hh_l0 f4 [256]
00000000: 3406 93bd dcae b63d b1d9 18bb 1ddd 5abc
00000010: 8f14 b4bd e516 a73d 534e e03d df22 2a3d
00000020: fb34 b73b c6ad c8bd 5e5e 153e fa12 a2bc
00000030: 1e54 173e 11be 903d 08f3 28bd ddf4 bb3c
00000040: 1fbd 123e 6aa0 72bd a10b 8d3a 4bd8 673d
00000050: ffaf ccba 3884 cebd e4ba 9fbd 79fe 8a3c
00000060: 3f50 003e 0c33 df3d f992 893d 0df2 5cbb
00000070: 9e7f 8d3d 664b f3bb b3b7 e63c b4de 6dbd
00000080: 163d 953d bbf5 ce3d 3afa 20bb 6822 823d
00000090: 76e1 90bd 7fd4 173c 1fb0 b83d 321e 883d
000000a0: e7ee e7bc 2acf 5c3c 91be 7dbd c687 98bc
000000b0: 2bf7 4c3e 4658 123e d327 d63d f8de 793d
000000c0: 1c14 833d b69d 9abd c0ce 003d 438a 22bd
000000d0: 9f59 803c a873 f43c bb47 6e3d 88dc d3ba
000000e0: fc71 e1ba 791a f9bd 3e6c fa3d 447d 26bd
000000f0: ea02 133d 542b 1f3d 0eb4 b0bd c07c 0b3e
00000100: 36f9 4abd 26f0 4b3d 7359 a9bc 8a89 54bc
00000110: ce5a 193c 628e 3fbc 9c29 a63c 34cb e23d
00000120: cb6f 4dbd a049 6dbd 1b90 c4bc 7984 cd3d
00000130: e164 8bbd 5049 44bd c3a2 773c 306a e5bc
00000140: 5deb 44bd ec93 073e 6f27 ab3d faa8 fd3b
00000150: 2947 c3bd 26e5 b0bd 35cd 673d 45c3 093e
00000160: 4314 c43d 33ed ddbd 9a2b 853c 63a5 6bba
00000170: 4e30 b1bc 5c48 4f3d 2c2d 31ba 7071 99bc
00000180: 7a35 81bc 756e 943d d319 e13a a4f3 ba3d
00000190: ff5c 7fbc 7b68 a13d a97e 193d 1bc4 5dbd
000001a0: 7082 7a3d 6573 06bd 0a83 213b ff99 cebc
000001b0: 6c0a 103e 294b 353d 83c3 f63c d057 64bc
000001c0: a84e dbbc 0f19 a1bd 455f 163e 63b6 bd3b
000001d0: c544 6f3c 7ebb e23c 3a21 113c 4371 8c3d
000001e0: e1c0 06bd 1952 df3d 9086 abbb bf26 8bbd
000001f0: 7683 eabc 49a0 fe3d bd0f d2bd b3b0 983d
00000200: b847 87bb 224e c1bd 427b 61bd 880e a1bd
00000210: d130 eabd 6250 923d 0fe7 c63d cec4 a8bd
00000220: f49e 173d df23 ad3d 7bea 6e3d 91e5 0e3d
00000230: 56ae cdbd e654 bdbc 46af 82bb 0cde cabd
00000240: d4b4 debd 77d3 9b3d 8a27 013c a943 8f3d
00000250: d8d7 7cbd ab50 91bd ac55 e63d e692 63bc
00000260: 42e5 b73d 1cd8 f9bd dc04 aa3c 7196 4dbd
00000270: 2dc2 15be 194a aa3d 3fad 18bd 5028 1b3c
00000280: 582e a8bd 2409 25bb 1385 683d d072 813c
00000290: e4f0 30bd 281e 47bd 233a 91bd 55fa 703d
000002a0: 0272 b63d 2de1 713c 911f d93d cf79 a23d
000002b0: ab3c 17bd f6d2 bb3d 8afe 973b ef28 50bd
000002c0: 36c8 c13d 175c b4bd 6634 173d b0ee 463d
000002d0: 39b9 e33d 4bbe 8c3d 2990 1c3c 3d35 01be
000002e0: faee 83bd 119f 25bd 1ad2 bd3c 4130 a43d
000002f0: 0b55 01bd e894 123d 2113 e83a b13c dfbd
00000300: 4a36 713d 80a2 8cbb 0794 023e a4cf 4b3e
00000310: 2cbe b6bd 598e e9bd 614a d5bd 26c0 f73c
00000320: be47 993c 8af6 c03d 5cbf 243b 285d 8fbc
00000330: a077 57bd eef8 91bd 4e1c 2c3d 9069 66bc
00000340: a03e 973c 8276 083e 56b9 763c 69e5 553c
00000350: 14b1 0e3d f2f1 6bbd c001 e93d 560a 793c
00000360: 976d e23c f10c 243d 528e a23d d73a 743d
00000370: ee44 373e 06cf 123e aec9 b5bc 388a ccbb
00000380: 818f 3abc acdb bdbc af0b 3c3e fab2 cd3d
00000390: 2735 153e 03cd d9ba d1c1 313e a1ff a53d
000003a0: dd65 33bd 863a 79ba c7a0 893d cf11 f33c
000003b0: 61ad a03d 4d29 ef3d f5d1 0dbd 1410 433e
000003c0: 51ff 9e3d ef52 ff3b 1c0b 093e 0426 b5bd
000003d0: 93b4 6bbd c1a5 b73d 0309 243d c1cc ea3d
000003e0: 30ef 133e fd83 f83d 3737 7ebd d505 91bd
000003f0: 8dc7 5abd a9dd 543d e7d3 4a3c b882 833d
-0.071789175 0.089200705 -0.0023323114 -0.013358382 -0.08792984 0.08158664 0.10952439 0.041537162
0.0055910326 -0.0979877 0.1458678 -0.01978444 0.14778182 0.07067502 -0.041247398 0.022943908
0.14329956 -0.059235014 0.0010760912 0.056602757 -0.0015616416 -0.100838125 -0.077993184 0.016967045
0.12530611 0.10898408 0.06717486 -0.003371361 0.06909107 -0.0074247597 0.028163766 -0.058073714
0.07287042 0.10105463 -0.002456321 0.06354219 -0.07074253 0.009266972 0.090179674 0.06646384
-0.02831216 0.013477126 -0.061949316 -0.01861943 0.20016162 0.14291486 0.104568146 0.061003655
0.0640032 -0.07549612 0.031447172 -0.039682638 0.015667735 0.029840305 0.058173876 -0.0016163746
-0.0017200108 -0.121632524 0.12227677 -0.040646806 0.03589145 0.03885968 -0.08628093 0.13621807
-0.049554072 0.04978957 -0.020672536 -0.012972245 0.009360028 -0.011691662 0.020283513 0.11073914
-0.050155442 -0.057931542 -0.023994496 0.10035033 -0.068063505 -0.04792148 0.015114489 -0.028004736
-0.048076022 0.13240021 0.08357131 0.007741091 -0.09535057 -0.086374566 0.056592185 0.13453396
0.09574177 -0.10836258 0.016256142 -0.0008989183 -0.021629479 0.050606117 -0.00067587453 -0.018730849
-0.01577257 0.072476305 0.0017173834 0.09128502 -0.015586137 0.07881256 0.03747431 -0.0541421
0.06115955 -0.032824893 0.0024644756 -0.025219915 0.14066476 0.04426113 0.030122524 -0.013936952
-0.026770905 -0.07866108 0.1468478 0.0057895645 0.014603798 0.027677294 0.0088580195 0.068575405
-0.032898787 0.10904331 -0.005234547 -0.067944996 -0.028627139 0.12432916 -0.10256908 0.07455578
-0.0041284226 -0.09438731 -0.05504919 -0.078641 -0.11435092 0.07144238 0.0971204 -0.082406625
0.037016824 0.084541075 0.058329087 0.0348869 -0.100430176 -0.023111772 -0.0039881794 -0.09905633
-0.10874334 0.07608693 0.007882962 0.06995327 -0.061729282 -0.07095464 0.11246809 -0.013890004
0.08979274 -0.12199423 0.02075427 -0.0501923 -0.14624853 0.08314914 -0.037274595 0.0094700605
-0.08211964 -0.002518245 0.056767534 0.015801817 -0.04319848 -0.048612744 -0.07091167 0.058832485
0.08908464 0.014763159 0.10601724 0.079333894 -0.03692309 0.09171097 0.0046384977 -0.050820287
0.09462015 -0.08806627 0.036915205 0.048567474 0.11119313 0.06872233 0.009555855 -0.12617965
-0.064420655 -0.0404349 0.023171473 0.08017016 -0.031575244 0.03578654 0.0017705896 -0.10900248
0.058889665 -0.0042918324 0.1275178 0.19903427 -0.08922991 -0.11404104 -0.10414577 0.03024299
0.018710967 0.094220236 0.0025138473 -0.017500475 -0.052604318 -0.07127558 0.04201918 -0.014063254
0.01846248 0.13326457 0.015058836 0.013055184 0.034836844 -0.057603784 0.11377287 0.015200218
0.027640147 0.040051404 0.07937302 0.059626427 0.17897388 0.14336786 -0.022190895 -0.006242063
-0.011386753 -0.023176037 0.18363832 0.10043903 0.14571057 -0.0016616884 0.17359091 0.08105398
-0.043798316 -0.0009507317 0.06720119 0.029671578 0.078455694 0.116777994 -0.03462406 0.19049102
0.077635415 0.007791869 0.13383144 -0.088451415 -0.057545256 0.08967162 0.040047657 0.11464835
0.14446712 0.1213455 -0.062064376 -0.070811905 -0.053412963 0.051969204 0.012379623 0.06421417

lstm.weight_ih_l1 f4 [256, 64]
00000000: d2bd 04bc a1dd 503b 4b21 24bd fc4a cb3c
00000010: 6d2b 49bd ea0f 83bc 4799 d43c a3d8 bb3d
00000020: 212d f8bd 74ec 363c eb12 01bc 67b1 7c3c
00000030: fbe0 f7bd 41cb 89bd bc54 313c 09bb be3c
00000040: d15a f93d e504 f6bb 9ec1 4b3d 92f9 95bd
00000050: 05d6 28bc 6ccb 8b3d 0b50 583d 199d 803b
00000060: 1d6a 903c c4ee cabd 8735 e6bb 4e32 0c3c
00000070: de50 bd3d ddb2 e13b f13b bfbd e3f9 6dbd
00000080: 5904 ebbd a507 a0bd 0c9e 693d 965c 5ebd
00000090: 1527 acbd 27e0 bcbd 3bc1 003d 8d50 22bd
000000a0: d567 12be 5882 3bbd 193d 043e 5020 013e
000000b0: 604c 30bd c7eb 123d 5e32 e5ba 0851 053e
000000c0: 8b25 cd3d 80bb cfbd 73e2 e9bd b1a4 943c
000000d0: a36d ecbc a934 93bd 693d 39bd fb50 bd3d
000000e0: dfde 9e3d bf93 193d feef 52bd a033 bb3d
000000f0: 16e1 533d 07e3 00bd 81d0 443d b88b cabd
00000100: fea3 80bc 69f8 993d cebb d43d 5f59 7fbd
00000110: ef0a 12be 7b3d 573d a4f5 be3d 902e ae3d
00000120: 848d 113d 9f03 83bd 2399 413c 208c afbd
00000130: 75e7 9abd a256 fcbd 55f7 353e 5bab 14bd
00000140: c623 2b3d 5cab 843d c82e f73d f353 83bd
00000150: bbaa 5f3d f923 67bc e869 dc3c 7ba8 0bbe
00000160: 4ade f1bd f1ef cdbd 01a4 923c 6338 babd
00000170: 6fac 5b3e 8c02 ff3c b277 d13c ce63 17be
00000180: af05 1ebd 5cbb 05bd 24eb 473e 82cd 77bd
00000190: dcc6 233e b66e 2ebd 23ca d5bd 1838 b43d
000001a0: 4bec 31be 9076 3c3e a6ca 35bd 5c4e 083e
000001b0: 1a32 f23d fdc4 893d 7c05 35bd d60b 8ebe
000001c0: bd1c b9bd 4da3 35bd b5ce 6cbd f72e b23d
000001d0: ef1e 3ebc 3b80 fe3c d5a5 48be 3c18 c6bd
000001e0: f024 09be 7d56 343d e41a 173d 404e 283e
000001f0: 63d0 ce3c a774 b13d 3265 cb3d caf9 f3bb
00000200: 1565 5ebd 09fe fb3d 8131 9fbd 90bc a03d
00000210: 7886 2dbd e3be 5abd 2e1c 373c d1be 783c
00000220: 2868 ff3c a354 b1bd 7a32 823d dbb0 a7bd
00000230: dd30 03be 9828 39bd c571 b9bd 906e 06be
00000240: a76e 13bd f2bb 133d ebe1 83bd 88c3 ef3d
00000250: ea8a 39bd 3f45 9cbd 65d6 c5bd b810 7ebd
00000260: 6ed9 b83d cdbc bf3d 67ce f93d 27d5 47bd
00000270: 76ab b9bd b68f 4dbe 3e4e 623d fcea 0fbe
00000280: fa24 f3bd 3a8b b3bd d948 adbd 5487 be3c
00000290: d4a9 a7bd d8f7 ccbd cc07 8e3d 631f af3d
000002a0: c8b8 413d af4c cebd 6417 e6bd c9d3 7d3c
000002b0: 47b2 e6bd a4e6 05bd c21b 933d 6de2 babb
000002c0: c2cc cd3d f265 563c 059b 903c c974 5fbd
000002d0: 0701 b3bd 17bc 943d a604 113e 8bdd bebd
000002e0: f8c3 07be 6675 96bd 1757 d5bd e34e 2c3d
000002f0: 14ae d5bc 8d62 463d f255 3c3d 24dd 283d
00000300: 0ff0 db3c 983a 273e 0dc3 ba3d 264b 18bd
00000310: d55c 0bbe 0335 8d3d f6dd d23d 795b 06bd
00000320: 5fa2 cbbd 7105 f83c a3d8 d1bb c7dd 46be
00000330: a552 47be 205f 23be 899a 983d fe86 2bbe
00000340: c156 153e 6d82 933d e9e1 68bd 3705 4e3e
00000350: 102e 18be 8903 84bd aa47 9c3d df0f 14bd
00000360: 2d55 42bd 5754 f4bd b410 dd3d 16b6 633c
00000370: ba5d c03d 2019 5f3d de98 d23d e6db 8ebd
00000380: f40d ecbd 7af0 a8bc 9912 cbbc 3a01 30be
00000390: c87f 1ebd 0c9c ac3c c0fa 50be 33c3 263d
000003a0: 7e43 98bd 6c3e 9abd 6de3 b23d 8265 2b3e
000003b0: 5673 d7bd e488 423d 2111 4dbe 9a21 7e3d
000003c0: d747 773e e91f 0cbd 11b5 a0bd 5851 b3bc
000003d0: b8ca 863c 484d f2bc a46f cebd 8648 22be
000003e0: cba7 cdbd 5508 88bd 831e 013e 1e84 f93b
000003f0: de5c debd 82f4 f23c 2aa0 ae3d 7549 073e
-0.008101897 0.0031870382 -0.040070813 0.024816029 -0.04911368 -0.0159988 0.025951995 0.091721795
-0.12117983 0.011164773 -0.007878046 0.015423155 -0.121034585 -0.06728221 0.010823425 0.023282545
0.12175525 -0.0075079077 0.049745195 -0.073229924 -0.0103049325 0.06825909 0.05281071 0.0039249775
0.017628724 -0.09908822 -0.007025424 0.008556915 0.0924394 0.0068877772 -0.09337605 -0.05809964
-0.114754386 -0.07813958 0.05703549 -0.054287516 -0.08405892 -0.09222441 0.03143428 -0.0396276
-0.14297421 -0.045778602 0.12913932 0.12609982 -0.043041587 0.035869386 -0.0017486324 0.13019192
0.100169264 -0.10143185 -0.11420145 0.018144937 -0.028860873 -0.071877785 -0.04522458 0.092439614
0.07757353 0.037494417 -0.051498406 0.09140706 0.05172833 -0.03146651 0.048050407 -0.098899305
-0.015703198 0.075180836 0.103873834 -0.06234109 -0.14261983 0.052548867 0.09324196 0.08504975
0.03553535 -0.06397175 0.011816296 -0.085716486 -0.07563678 -0.123212114 0.17770131 -0.03629623
0.041782163 0.06477997 0.1206947 -0.064124964 0.05460618 -0.014107698 0.026905969 -0.13638489
-0.118099764 -0.10055531 0.017900469 -0.09092786 0.21452497 0.031129144 0.02556977 -0.14784166
-0.03857964 -0.032649383 0.19523293 -0.060498722 0.15993828 -0.04258605 -0.10438945 0.087997615
-0.17375295 0.18404603 -0.044382714 0.13311142 0.11825962 0.06727026 -0.044194683 -0.27743405
-0.090386845 -0.04434519 -0.05781432 0.08700364 -0.011604055 0.031067004 -0.1959451 -0.09672591
-0.13392997 0.044027794 0.03689088 0.164361 0.02524585 0.08664828 0.09931411 -0.0074455487
-0.054295618 0.12304313 -0.07773114 0.078484654 -0.042364568 -0.0534047 0.011176152 0.015182213
0.031177595 -0.08658721 0.06357284 -0.081880294 -0.12811609 -0.04520473 -0.09054903 -0.13128114
-0.0359942 0.03606791 -0.06439575 0.117072165 -0.045298494 -0.07630395 -0.09660033 -0.062027663
0.090258464 0.09362183 0.12197571 -0.048787262 -0.09065907 -0.20074353 0.0552504 -0.14054483
-0.11872287 -0.0876679 -0.0846116 0.023257889 -0.08186689 -0.1000821 0.06935081 0.085509084
0.04729536 -0.1007322 -0.1123493 0.015492388 -0.112644725 -0.03269066 0.07183029 -0.0057032616
0.1004882 0.013085829 0.017652044 -0.054554734 -0.0874043 0.07262438 0.1416193 -0.093196
-0.1325835 -0.07346611 -0.10417002 0.04206742 -0.026083983 0.04843383 0.0459804 0.04122652
0.026847867 0.16330945 0.09119234 -0.037181042 -0.13609631 0.06894877 0.10296242 -0.03280208
-0.09943079 0.030276032 -0.006403999 -0.19420539 -0.1946512 -0.15954256 0.0745135 -0.16750714
0.14583875 0.07202611 -0.05685607 0.20119177 -0.14861321 -0.06445987 0.07630856 -0.03614795
-0.04744451 -0.11930149 0.107942015 0.013898393 0.09392877 0.05446732 0.10283063 -0.06975536
-0.11526099 -0.02062248 -0.024789141 -0.17187968 -0.03869608 0.021070503 -0.20408154 0.0407135
-0.07434748 -0.07531437 0.08734784 0.16737941 -0.105200455 0.04749383 -0.20026065 0.062043764
0.24148498 -0.03421012 -0.07847036 -0.021889374 0.016454086 -0.029577866 -0.100798875 -0.15847978
-0.100417696 -0.06642214 0.12609296 0.0076146265 -0.10857557 0.029657606 0.085266426 0.13211615

lstm.weight_hh_l1 f4 [256, 64]
00000000: 29c4 8bbb bccd 843d a893 25bd c529 79bb
00000010: 826e d83d b3bd afbd bb00 c13d 40e7 95bd
00000020: af48 28bd 58eb eb3d c72a d33b 7c51 323b
00000030: fe8a 16be 5786 893c 2b20 ef3d 97eb 563d
00000040: 4403 a1bd ac88 e73d a4e0 d83d a908 373d
00000050: ef35 3cbd 8226 69bd 3e9f 79bd 1ea8 013e
00000060: 5882 853d 0d2d cd3d 510e 4e3d 1692 efbd
00000070: 7cb5 983d add6 2fbd ea2c c4bd d72c 8dbd
00000080: 68da a0bd 06e8 223d 0306 a7bd cb63 dcbc
00000090: cebb f5bd da47 e63d 9289 f23d 07da d5bd
000000a0: faa4 d1bd 26e9 833c 3c12 253d 906e 82bd
000000b0: 6711 903d f09d dc3d 6925 b43d 0b5c ff3d
000000c0: 67e5 9fbb 0b8e 6a3c e702 d9bc b47f 1dbd
000000d0: cdbe 103d a4cd 9a3b acb5 87bd 5cce eebc
000000e0: 3fc2 a2bd b2cb 4d3d cdc1 323d 38e8 703d
000000f0: 4bc5 d73d aaac 1dbd 064f 05be 9676 54bd
00000100: e060 bb3d 4559 d2bc 7d86 c43d 2647 ba3d
00000110: b7e0 ad3d b167 d4bc 363e c03d 20a1 1a3d
00000120: fd80 c1bb 3625 093e 3003 14bd 7709 6fbc
00000130: 375b cf3d b638 d13d dd45 8bbd f241 99bd
00000140: 9ec5 aebc f848 babd 3d91 8e3c 497a 263d
00000150: 05e5 1c3d 9203 95bc 651c 00be d1a7 263d
00000160: 6d6a 0b3e dc88 943d 0cd7 acbd 8117 e9bc
00000170: b6fb e2bd d482 f83d f18f 53bd 19a0 36bd
00000180: c29c f33d 8b2f c1bd c7f0 aebc d556 e2bd
00000190: e45b cc3d a0fc 8f3d 2e7c 46be f923 903c
000001a0: a4a1 703d cd81 a0bd 5086 94bc b682 40bc
000001b0: dce6 053e 09ee bfbd 5d0e f3bd a7b3 0dbe
000001c0: 335b d23d 582d f53b cff5 5a3d 847e bc3d
000001d0: 9e89 80bd 6710 973d bd08 28be 20a1 32bd
000001e0: d1ef 973d 0bfb e5bd 2205 de3d fea3 543d
000001f0: 6d42 15be d918 583c abe6 91bd a8f3 c23d
00000200: 783c db3d 78a1 95bc 4d9d 1abd c46b 3f3d
00000210: b37c 183d 886b 11be 767a 88bc 8286 debc
00000220: cd5c b13d 5492 503d b812 a23d b532 863d
00000230: da34 4f3c 2b57 acbc fe8f a63d 6e16 b3bd
00000240: 8220 df3d 11cc afbd e18c 4a3c eb73 603d
00000250: e27d 95bd 6ff3 b3bd 7dee 0f3e f3b3 e43d
00000260: c574 d7bc aae0 c5bb 391e c5bd 0447 893d
00000270: 80c7 6f3d b668 55bd 524a cb3d 7bc2 023e
00000280: 473d a8bd 3503 33bc 3d69 193d c090 5dbd
00000290: b1d3 fdbd 8f70 95bd d490 9cbd 2ea9 a03d
000002a0: 7d33 a3bd 2146 623c 7008 0e3e 95a4 003e
000002b0: a836 ed3c 687f 2c3d 5fec cdbd 2708 d53d
000002c0: c7e2 90bd 39a2 783d a4ac dc3d 1894 b03d
000002d0: 014c 80bc 0f1e 2d3b fca9 8e3d 0b21 d8bd
000002e0: f557 d43d 5306 a3bd ad02 f1bd a1cc 7fbd
000002f0: ea51 2f3d fe02 5f3d 7e1b 023d abe6 d63d
00000300: ff21 d43d ebd4 94bc 0125 38be b553 253d
00000310: 3fcf 433e 19cc e93d 60fe a53d e46c 53bd
00000320: 793f 123e 5a56 483d c805 26be 1a1f 35bd
00000330: a954 0f3c 54e2 0cbc d558 7f3e f084 3cbe
00000340: fe1e febc 9d61 cc3d e67c 9dbd 078b b63d
00000350: eaa4 093e 2efa 023e 32f5 a1bd 7a5a 67bc
00000360: a266 09be 4607 05be e128 e03d cb9e 723d
00000370: 4d64 97bd 3b99 a8bc 9569 19bd f5ee 123e
00000380: 3340 353e e8a4 873c cc09 c13c 215d 09be
00000390: b481 303d f996 b7bb d8c8 e0bd eb99 063d
000003a0: 864f dcbc e66f 00be 347e b6bc 232b 2f3e
000003b0: d64f 02bb 4833 d23d 1ae4 953d 8e08 cfbd
000003c0: 4885 483e 5b03 273e 5d80 20be 2235 25be
000003d0: 12b6 60bd abae 08bd e1d3 523d 1cf1 2fbe
000003e0: d3b9 60bd f512 51bd d65b 55bd 6d93 83bd
000003f0: 69d6 42be b8c5 fe3d 7c07 ebbd 7f14 263e
-0.0042653275 0.06484553 -0.04042402 -0.0038019281 0.10567953 -0.08581104 0.094239675 -0.07319498
-0.04108494 0.11519498 0.0064443084 0.0027209213 -0.14701459 0.016787691 0.116760574 0.05247077
-0.07861951 0.11305365 0.10589722 0.044685993 -0.045949873 -0.05692149 -0.06094288 0.12661788
0.06519002 0.100183584 0.050306622 -0.116977856 0.074564904 -0.04292934 -0.09578879 -0.06893318
-0.07854158 0.039772056 -0.081554435 -0.026903054 -0.119987115 0.11244173 0.11842646 -0.10441976
-0.10236545 0.016102385 0.040300593 -0.063687444 0.07034569 0.10772312 0.08796198 0.12468728
-0.004879642 0.014316092 -0.026490642 -0.038451865 0.03533821 0.0047242213 -0.06626448 -0.029151134
-0.07947206 0.050243087 0.043641854 0.05881521 0.105356775 -0.038494743 -0.13018426 -0.051870905
0.09149337 -0.025677333 0.09595964 0.09095602 0.084901266 -0.02592835 0.09386866 0.037751317
-0.005905269 0.13393101 -0.036135852 -0.014589659 0.1012482 0.10215895 -0.06800435 -0.07483281
-0.021334466 -0.09095949 0.01740324 0.040643964 0.038304348 -0.018190179 -0.12510832 0.040687386
0.13614817 0.07252666 -0.084394544 -0.02845359 -0.11083166 0.121343285 -0.051650945 -0.044586275
0.118951336 -0.09432896 -0.021355046 -0.11051718 0.09978464 0.07030606 -0.19383308 0.017595278
0.058747903 -0.078372575 -0.018130451 -0.011749914 0.13076347 -0.093715735 -0.11867974 -0.13838063
0.10271301 0.007482212 0.053457078 0.092038184 -0.062762484 0.073761754 -0.16409583 -0.043610692
0.07418788 -0.11229523 0.10840823 0.051914208 -0.1457612 0.013189518 -0.071240745 0.0951913
0.10704893 -0.01826547 -0.03774767 0.046733633 0.037228297 -0.14201176 -0.016659956 -0.027163748
0.086602785 0.0509208 0.079137266 0.0655264 0.012646878 -0.021037659 0.08132933 -0.087445125
0.10894872 -0.085838445 0.01236269 0.054798048 -0.07299401 -0.08786666 0.1405582 0.11167135
-0.026300797 -0.006038745 -0.09624905 0.06702998 0.058539867 -0.052101813 0.09926285 0.12769501
-0.08214813 -0.010926058 0.03745388 -0.054093122 -0.123938926 -0.072968595 -0.07644811 0.078447685
-0.07968805 0.013810665 0.13870406 0.12562783 0.028956726 0.04211369 -0.1005485 0.104019456
-0.07074504 0.060701583 0.10775116 0.08621997 -0.015661241 0.0026415621 0.06966016 -0.105531774
0.10368339 -0.079601906 -0.117680885 -0.06245101 0.04280273 0.054446213 0.0317645 0.10493215
0.10358047 -0.018167933 -0.17982866 0.040363032 0.19122027 0.11415882 0.08105159 -0.051617518
0.14282025 0.048910476 -0.16213143 -0.044219114 0.008748212 -0.008598883 0.2493623 -0.18410087
-0.031020638 0.09979556 -0.07689838 0.08913236 0.13441816 0.12790748 -0.079080954 -0.014120692
-0.13418058 -0.12991056 0.10945297 0.059233468 -0.07392178 -0.020580878 -0.037454206 0.14348967
0.17700271 0.016558126 0.023564242 -0.13414432 0.043092445 -0.005602714 -0.10975808 0.03286163
-0.026893388 -0.12542686 -0.022276975 0.17106299 -0.0019884012 0.10263687 0.073188975 -0.101090536
0.19582093 0.16309874 -0.15673967 -0.1613355 -0.054861136 -0.0333697 0.051471595 -0.1718182
-0.054864716 -0.05104347 -0.052089535 -0.064246036 -0.19027103 0.124400556 -0.11476037 0.16218756

lstm.bias_ih_l1 f4 [256]
00000000: 6e1f 8cbd 8106 85bb 438c b3bb 5ca2 7f3d
00000010: b369 8f3d 4445 8b3b a541 c8ba 82f3 e03d
00000020: b8b7 95bd 1429 cabd 5e42 6bba d266 c9bc
00000030: 323c d63d e0ad 36bd 8b04 863d 6fae a0bd
00000040: ca26 a3bc 1dc4 733d 59b8 ff3d 14fd 89bd
00000050: 4595 adbc 04cc e9bd 42a4 5fbc 1287 b53d
00000060: 607c f5bd 4447 faba e350 7d3d c329 8a3d
00000070: 901a 583d bfaa c33d a4e3 673d 8d14 cd3d
00000080: dfd5 aa3d 280c 863c 260f ac3d a7b9 3a3d
00000090: ee81 be3d 1bba 0c3e 2c58 6b3c 97ff 94bb
000000a0: 5561 ac3d b86a 933d a049 adbd 5ab6 e2bc
000000b0: 1da6 b0bd 8823 ee3d 03a6 f4bc c59d 813d
000000c0: a00b 163e 2c99 15bd 0589 e3bc 7433 82bc
000000d0: 566d 22bd 1733 303e 7d8e af3c 3ab6 26bd
000000e0: d828 683d a0cc 8d3d f09e 333c 0758 713b
000000f0: ad46 fb3d 743e dbbd 6237 9bbd b00c 92bd
00000100: daf4 b63c 8cf3 863d 437f c0bd 705f 8dbd
00000110: c6d0 ed3d e536 173b 89d1 dbbd 5fce d73d
00000120: 1556 003e b46b cf3d 7716 80bd 8481 14ba
00000130: 5f1c 40bd f761 433d 2613 423d 55f5 edbc
00000140: 38bf d3bd dd9e ae3d 851a b0bd 99c9 6fbc
00000150: dcab f1bd e032 863d d332 183c 871a 98bd
00000160: a658 03be e4fd a8bd 6cc7 e43d 2684 acbd
00000170: c1ce 23bd 2847 95bd 90eb 9fbd 2414 033e
00000180: 651f b4bc a3df 923d 3445 2e3d b8ca fd3c
00000190: 59c8 e83d cad6 8a3c 3929 d3bc 1746 8abd
000001a0: 6527 40bd 54a9 d63d f647 2c3c db77 a83c
000001b0: c3e7 393d 1ff2 e43d fb64 8bbd cdd2 453c
000001c0: 1789 0b3e a4f5 e6bd b31b 2fbc ef9b 92bc
000001d0: b860 f63b 70d0 a4bd 0908 3a3d c1fb 8abc
000001e0: 86e2 e23d ae99 17bd 3401 bf3c e02b b2bd
000001f0: ea58 1bbd 318c 1f3d b627 84bd 1987 a43d
00000200: 6d3d 8e3d e8a2 a7bc d075 9a3b e4e1 b23d
00000210: 47f4 3b3c bca6 e43d 75b1 bdbc 6dcb eabc
00000220: 00c1 bc3b 4712 c4bc 6650 c9bd 4898 b6bc
00000230: 6275 25bd b74b c6b8 4651 c53d 297b 9abd
00000240: b76f 08bd 4daf 92bd 5ed6 f3bd aeea e63d
00000250: 9977 15bd e722 353b c87f 0b3d f235 c03d
00000260: 44a6 85bc cd03 ce3d 6732 fe3d 3e68 2a3d
00000270: f640 02be 887f d33d 4a6e e43d e5f9 c73d
00000280: 8492 e13d ceda f23c f73f b5bd ab02 d9bd
00000290: 6efc 85bc 4d33 85bd a1a2 ea3d 35ab aabc
000002a0: 5309 2bbd 06b4 03be a632 13be b384 143e
000002b0: 4019 6cbd 497a 013e 31a0 c2bd ff56 873d
000002c0: 9696 833d 3e80 c33d 7ef0 233c 856c e13c
000002d0: a17e b5bd 445b 9bbd eb27 0abe c0f1 eebd
000002e0: fe9c f4bd a8d6 10be 6574 ddbd 3086 563c
000002f0: 0aa8 d03c ccc8 e0bc a667 19be 1e01 b03d
00000300: 38a4 913d e662 393d 6613 543c 12fa f43d
00000310: 738a adbd 0bf2 6bbd 9b5d 73bb 6139 b13d
00000320: 792c 7bba 74b4 153d 2d36 1a3d 890b aabd
00000330: f71e 033c 0e26 29bd d799 503d 305e df3b
00000340: d26c 773b 738c 403e 42a2 0dbd 8dcd 053e
00000350: 672b ebbc 5d3d f83d eefe ec3d 1927 3d3d
00000360: 88fe b33c d94a be3b 6cb7 6b3d 5232 843d
00000370: b8e9 a03d 5a2c 613d bcee 0dbc d2c3 063e
00000380: 44e0 1e3c c258 fd3d 7d06 f7bd c0c9 20bd
00000390: 5f67 183c bc25 eabb a4ab cb3c 2b9c 95bd
000003a0: 127c 1abd 67b8 333d 396e 13bd 4759 cabd
000003b0: 977d b2bd df7c 3ebc f35d df3d 5c25 85bd
000003c0: db41 9cbc ae3c f73d 6b33 27bd 5ee0 883d
000003d0: 1b91 08bc da97 163e adca b33c 5a57 0a3e
000003e0: 0df3 c43c b707 db3d f2ce 0b3c b204 fbbb
000003f0: f8f9 2ebd baa4 a0bd 0782 a93d 58dd 283d
-0.06841932 -0.004059613 -0.005479367 0.062410697 0.070025824 0.0042502005 -0.0015278353 0.109839454
-0.07310432 -0.09871116 -0.0008974428 -0.024585161 0.104607 -0.044599414 0.06543835 -0.078457706
-0.019915957 0.0595132 0.124863334 -0.06737724 -0.021189341 -0.11415866 -0.013650002 0.08863653
-0.11986613 -0.0019094725 0.061844718 0.06746247 0.052759707 0.095540516 0.05661358 0.100136854
0.08341574 0.016363218 0.08401327 0.045587208 0.09302126 0.13742869 0.0143642835 -0.0045470702
0.08417002 0.07198089 -0.084613085 -0.027674843 -0.086254336 0.11627871 -0.029864317 0.0632892
0.14652872 -0.03652303 -0.027775297 -0.015893675 -0.039655052 0.17206989 0.021430248 -0.04070113
0.056679577 0.06923795 0.010963187 0.003682615 0.1226934 -0.10705271 -0.07578923 -0.07131326
0.022333551 0.06589422 -0.09399273 -0.06902969 0.11612086 0.0023073491 -0.10733325 0.10537409
0.12532838 0.101279646 -0.06254285 -0.0005665051 -0.046902057 0.04770085 0.047381543 -0.029047647
-0.103392065 0.085263945 -0.08598808 -0.014635467 -0.11800358 0.065526724 0.009289461 -0.07426935
-0.12826785 -0.08251551 0.11170849 -0.08423643 -0.039992098 -0.072889626 -0.07808602 0.12800652
-0.021987626 0.071715616 0.042546466 0.030980453 0.11366338 0.016948123 -0.025776492 -0.0675165
-0.04691257 0.104815155 0.010515204 0.020564964 0.04538704 0.111789934 -0.0680637 0.012074185
0.13626514 -0.11277321 -0.010687756 -0.01789662 0.007518854 -0.08047569 0.04541782 -0.016965749
0.11078362 -0.037011795 0.023316003 -0.08699775 -0.037926592 0.038952056 -0.06452887 0.0803358
0.0694531 -0.020463422 0.0047137514 0.087344915 0.0114718145 0.111646146 -0.023155907 -0.028661454
0.005760312 -0.023934497 -0.09829788 -0.02228941 -0.040395148 -9.455479e-05 0.09634642 -0.07543022
-0.033309665 -0.07162342 -0.11906122 0.1127523 -0.03649101 0.0027639212 0.03405741 0.09385289
-0.016314633 0.10059319 0.12411957 0.04160332 -0.12720093 0.10327059 0.111538485 0.097644605
0.11014274 0.02964535 -0.08850091 -0.10596212 -0.01635572 -0.065039255 0.114568 -0.020833591
-0.04175694 -0.12861642 -0.1437479 0.14503746 -0.057641268 0.12644304 -0.0950321 0.0660839
0.06425206 0.09545945 0.010006068 0.027517566 -0.08862043 -0.07585767 -0.1349179 -0.11667204
-0.119440064 -0.14144385 -0.10813216 0.013093516 0.025470752 -0.027439497 -0.14980945 0.08593963
0.071114 0.045260333 0.012944078 0.119617596 -0.08473673 -0.057603877 -0.003713465 0.08653522
-0.0009581517 0.036549047 0.037649322 -0.083029814 0.008002988 -0.041296057 0.050927963 0.006816648
0.003775407 0.18803577 -0.03457857 0.13066693 -0.02870722 0.12121079 0.115720615 0.046179865
0.021971956 0.0058072624 0.05754797 0.0645491 0.07857078 0.054973938 -0.008662876 0.13160637
0.009697024 0.12370445 -0.120617844 -0.039254904 0.009301989 -0.0071456116 0.024862118 -0.07305177
-0.03771598 0.04387703 -0.03599379 -0.098803096 -0.087153606 -0.011626451 0.10906591 -0.06501266
-0.019074371 0.120721206 -0.04082052 0.0668342 -0.008335377 0.14706364 0.02194723 0.13509884
0.024041677 0.10694831 0.008533226 -0.007660472 -0.042718858 -0.07843919 0.08276754 0.041226715
